Best_LeNet_Model.pkl (torch_old, 268682 bytes, 10 tensors)

weight f4 [6, 1, 5, 5]
000000 0d 23 29 3e d8 49 69 bd 74 1a 7f bd cf 25 9f 3c
       0.16517277 -0.05695519 -0.062281087 0.019427208
000010 2b 25 95 be d3 02 67 3e da b2 9f 3d 06 a0 37 3e
       -0.2912992 0.22559671 0.07797785 0.17932138
000020 2e 40 e1 3d fa 63 51 3c 73 34 20 3e fa 6d 21 3e
       0.109985694 0.012780184 0.15645008 0.15764609
000030 e9 f5 73 3e 17 fd ea 3d 9d 20 00 3e d0 77 d6 3c
       0.23824276 0.11474054 0.12512441 0.026180178
000040 02 ba 0b 3e 4d 3d 11 3e 1c d3 aa 3e ee 77 65 3e
       0.13645175 0.1418354 0.3336419 0.22409031
000050 f6 cb 50 be c9 75 56 be ee 54 e9 bd f3 8e dc bd
       -0.20390305 -0.20943369 -0.11393152 -0.10769453
000060 cb 93 c2 bc 2c 3d 61 3d a3 b9 5c 3e ec b1 3a 3e
       -0.023752114 0.05498998 0.2155519 0.18231934
000070 2d 60 82 be 82 a3 2e bd 96 9f fe 3d 7c 28 9c 3e
       -0.25464 -0.042636402 0.12432782 0.30499637
000080 c1 1b 47 3e 38 a3 93 be 9a b8 d7 be b2 e1 e5 bb
       0.19444181 -0.28835464 -0.42133027 -0.0070154304
000090 5c 0b 9c 3e 4e 0a 82 3d 54 70 95 3d f3 0c 65 be
       0.30477417 0.06349622 0.072968155 -0.22368221
0000a0 ea f6 8b 3e ba 95 1e 3d 4b ec 91 3e cc 84 04 3e
       0.27336818 0.03871701 0.2850059 0.12941283
0000b0 62 00 c3 bc 92 11 04 3e 6a a5 e4 bc 3e fb 1a 3e
       -0.023803893 0.12897328 -0.027910907 0.15134904
0000c0 90 59 be 3d e4 76 f8 3d 56 fe 9e be 8a 46 2e be
       0.092944264 0.121320516 -0.31053418 -0.17019096
0000d0 b5 38 b7 3d 76 98 73 3c 0a 21 94 3e 9a bb 45 3e
       0.08946363 0.0148678925 0.28931457 0.19309846
0000e0 d9 cc 8e 3d 41 35 f9 bc c8 c7 80 3e 38 b3 44 3e
       0.06972665 -0.030420901 0.2515242 0.19208992
0000f0 54 9f 50 bc 75 1e 8a 3e b9 8b 84 3e 7d 4e 99 3e
       -0.012733299 0.26976362 0.2588785 0.29942694
000100 b6 08 a4 bc 66 b3 e5 3d 51 49 0f 3e 1f 9c fc 3d
       -0.020023685 0.11215858 0.13992812 0.12334465
000110 0e 9c d1 bd 25 6a 1b be 51 13 5e 3e b9 67 a7 3c
       -0.10234843 -0.1517721 0.21687056 0.020435201
000120 be 15 c9 3d d8 ad 03 bd 1c 04 45 3c c3 30 fd 3d
       0.098186 -0.032148212 0.0120249055 0.12362816
000130 85 02 44 3e ff a9 3d 3e 0c d0 02 be 54 c1 28 3e
       0.19141586 0.1852188 -0.12774676 0.16479999
000140 55 23 8e be 17 24 22 be 80 6f c6 3d 0b 63 ed 3d
       -0.2776133 -0.1583408 0.09689236 0.115911566
000150 4e 87 91 3e e2 57 82 be 00 a2 18 be b9 63 90 3e
       0.28423542 -0.25457674 -0.14905548 0.28201082
000160 86 d1 20 3e e9 d0 85 3e ac 50 ff 3c 9f ed 70 bd
       0.15704927 0.26135948 0.031166397 -0.058820363
000170 cf 26 4e 3e b6 5c 43 3e 6a 0f ad bd d6 97 1c bd
       0.20131992 0.19078335 -0.084502056 -0.03823074
000180 5d 7d 0b 3e b1 98 c8 3d 3e c4 da bd be 02 3b be
       0.13622041 0.097947486 -0.106819615 -0.18262765
000190 11 5d 70 3e 16 bf 76 3d b5 bc 5d 3e e7 fb 27 3e
       0.23473002 0.060240828 0.21654017 0.16404687
0001a0 f8 15 e2 bd 59 73 d7 bd 7f 79 95 3e e7 0a 02 3e
       -0.110393465 -0.10520048 0.29194257 0.12699471
0001b0 56 a0 50 3e 3c 55 2c 3d 90 d8 f3 3d 2b 68 83 3e
       0.20373663 0.042073473 0.119065404 0.2566541
0001c0 b9 c2 98 3e 8e 6a 85 bd c1 d8 ce 3c bb 3a 4a 3e
       0.29836062 -0.06514464 0.02524984 0.19748966
0001d0 3b c8 80 3e df 12 7a 3e 1a 19 72 bd 76 16 ea bd
       0.25152764 0.24421261 -0.05910597 -0.11430065
0001e0 15 7f 95 bd 17 1e ed 3d ca 46 9d 3e 83 5e 39 bd
       -0.072996296 0.11578005 0.3071807 -0.04525615
0001f0 a1 d9 1a 3e 41 78 0f be 35 cb 64 be 6b e9 31 bc
       0.15122081 -0.14010717 -0.22343142 -0.010858874
000200 a6 74 3e 3e 03 d2 7b 3e 39 d0 8b bd 61 ff ec 3d
       0.18599185 0.24591832 -0.06826825 0.11572147
000210 d5 85 87 3e 08 6c 6b 3e 78 ea 35 3e ef ce 73 3e
       0.26469293 0.2299043 0.17765224 0.23809408
000220 f3 12 50 3e aa 25 fb 3d 64 f6 90 bd a8 00 18 be
       0.20319729 0.12263043 -0.07078245 -0.14844
000230 61 d9 4c bd fe 40 12 39 a3 a7 c7 bd 48 9e 09 3e
       -0.050011996 0.00013947856 -0.09748771 0.13439286
000240 ad 8d dd 3d 72 0c 1e bd cb f0 97 3d 80 1f af 3d
       0.10818038 -0.038586088 0.074189745 0.0855093
000250 73 82 3c 3e c7 ea 44 3e
       0.18409137 0.19230185

bias f4 [6]
000000 92 ef 0c 3a da ba 35 3e ff 9a 3d 3c 8e c6 63 3d
       0.0005376275 0.1774706 0.0115725985 0.05560928
000010 a2 7d e8 bd 15 1a db bb
       -0.113520876 -0.006686459

weight f4 [16, 6, 5, 5]
000000 f5 d0 ed bd ab 55 05 be 05 37 b8 bb 8f 16 9d bd
       -0.11612121 -0.13020961 -0.005621793 -0.07670318
000010 04 2e b4 bc fb 0a 03 be b3 ad 27 bd c4 ef 0a bd
       -0.021994598 -0.12797157 -0.040937137 -0.033920065
000020 fb c1 b0 bd 60 19 0d 3d d9 f6 08 be c2 a4 e3 bc
       -0.08630749 0.034448028 -0.13375415 -0.027788524
000030 49 88 8a bd 67 38 22 bd c7 6a 1d bd 21 b1 e9 bd
       -0.067642756 -0.03960457 -0.03843191 -0.11410738
000040 4c e6 98 3b 68 15 1e 3d 00 f9 03 3e a5 ef 3e 3d
       0.0046661254 0.038594633 0.12887955 0.04661526
000050 86 0d 08 bd 86 39 d4 3c d7 9d 72 bb f1 7e c8 3d
       -0.033216022 0.025906336 -0.003702035 0.09789837
000060 7e c8 c2 bc d9 1b aa bd c9 50 40 be 4c 23 0e bd
       -0.023777243 -0.08306093 -0.18780817 -0.03470163
000070 ca d8 db bc c5 20 ef 3d 50 b6 5c be 6b bf 46 be
       -0.026836772 0.11676172 -0.21553922 -0.19408958
000080 e0 12 f9 3c 70 96 40 3c 63 8c 0d 3d 0f 90 4c be
       0.030404508 0.011754617 0.03455771 -0.19976829
000090 78 65 bf bd fc 14 cf 3d e1 c8 f5 3d 9e 92 09 be
       -0.093455255 0.10111424 0.12001205 -0.13434836
0000a0 59 c1 a9 bd 52 8b d0 3d ab 47 21 3e 19 aa 48 bd
       -0.08288831 0.10182823 0.15749995 -0.048990343
0000b0 a2 fc 1d bd 71 ec d1 bd 59 fc eb 3d 86 59 67 3c
       -0.038571008 -0.10250176 0.11522741 0.014120465
0000c0 cd 18 00 3d c9 5c e6 3c d6 fd 0d bc c7 3c b8 bc
       0.031273652 0.028120415 -0.008666476 -0.022489918
0000d0 1e 05 2e 3d 24 d8 e6 3d a7 5c 0b 3d 40 b4 b9 bd
       0.04248535 0.11271694 0.034023907 -0.09067583
0000e0 0e 40 fc bb c2 1d 38 3e 15 0c 23 3e 23 3e 9f bc
       -0.0076980656 0.17980102 0.15922578 -0.019438809
0000f0 03 0c db 3d 9b a7 60 3d 39 e3 27 3d 7b 6f 89 bc
       0.106956504 0.05484734 0.04098818 -0.01677679
000100 d1 c9 13 be a5 17 06 3e e7 16 2c bc 54 10 a4 bd
       -0.14432456 0.13094957 -0.010503507 -0.08010927
000110 53 60 bd bd 4b fd 51 bd c6 f6 c2 bc b7 33 20 3d
       -0.09246888 -0.05126695 -0.023799311 0.03911182
000120 94 8d 1e bd 87 bc 91 3c bc 25 2a bd 87 d3 f1 bd
       -0.03870924 0.017790092 -0.041539893 -0.11807924
000130 3e 4d 92 bc 13 30 6a 3d 52 f1 67 3d 58 95 22 bd
       -0.017859098 0.057174753 0.056626625 -0.039693207
000140 79 37 22 be 0f 79 3e 3e 2a e8 28 3e 41 68 18 be
       -0.15841474 0.18600868 0.16494814 -0.1488352
000150 91 c0 2f be 4c f9 48 3d 82 47 12 3e 5b 1c b9 bb
       -0.17163302 0.049065873 0.1428509 -0.005649132
000160 bd 1c 86 be 42 d7 d0 3c 39 58 a0 bc 7b 90 7e bb
       -0.261938 0.025493268 -0.019573318 -0.0038843441
000170 74 2d c7 bd 2b d5 c6 bc 89 6b 67 3d 69 a5 1d bd
       -0.09725466 -0.024271568 0.056499038 -0.038487826
000180 08 ec 91 bc 72 30 aa bc f0 a9 05 3d 89 0e 88 bd
       -0.017812744 -0.020775054 0.03263277 -0.06643397
000190 de 0f 12 3c 11 35 5a 3c 3d 2e be 3c 2e c9 24 3d
       0.008914916 0.013318316 0.023215408 0.040230922
0001a0 48 7a 03 3e bf bb a1 ba e2 a6 f2 bb 56 c0 3b 3e
       0.12839615 -0.0012339278 -0.007405148 0.18335089
0001b0 9a da ba 3d 5a 55 ac bd 3c 7a 7f bc 39 04 81 3d
       0.09123726 -0.08414717 -0.015593108 0.062996335
0001c0 a8 08 39 3e 54 44 e0 bc 03 d2 a5 bd 47 ba 1f 3d
       0.18069708 -0.027376331 -0.08096697 0.038996007
0001d0 c7 87 f7 3d 6c 14 0d 3e 7f 2c 75 bd db a0 5f bd
       0.12086444 0.13777322 -0.059856888 -0.054596763
0001e0 06 2d 5b bd e7 5c 33 3d 31 de 15 bc b3 78 e6 bb
       -0.053509735 0.04378977 -0.009147213 -0.0070334314
0001f0 5c 82 5a bb 3f 46 11 3d 78 9a 28 3e d5 4a 51 3d
       -0.003334186 0.035467383 0.16465175 0.051096756
000200 8a ca ae bc e4 d2 53 bd 9c da 97 bd 5b e0 e5 3d
       -0.021336813 -0.051714793 -0.07414743 0.11224433
000210 4b 25 4b 3d a0 5b b9 3d 22 24 e5 bc f2 2c 13 bc
       0.049596112 0.09050679 -0.027971331 -0.008982884
000220 f6 b4 15 3e 0c 2c fb 3d cb f4 a7 bd 4a eb d3 bd
       0.14619812 0.12264261 -0.082009874 -0.10347612
000230 da 65 d3 3c f8 91 7d 3d 27 00 8c bd ff b4 15 be
       0.025805403 0.061906785 -0.068359666 -0.14619826
000240 9e 3d d7 ba 77 e0 a7 bc 0e e1 22 3d 7f 3a c1 bd
       -0.0016421562 -0.020492775 0.03976541 -0.09434985
000250 06 98 5a bd 30 4a 07 bd 15 b4 b5 bd cc 3b 90 3d
       -0.053367637 -0.033029735 -0.088722385 0.07042655
000260 10 f7 49 3d bd c0 f4 3d 94 60 2b bc 44 1c 4f bd
       0.049307883 0.119508244 -0.010460038 -0.050564066
000270 68 af 42 bd d3 44 5d 3c 64 47 ea 3d fd 59 2b bd
       -0.04753056 0.0135051785 0.11439398 -0.041833866
000280 cb 46 f5 bb 74 45 b2 3d df e8 90 3d 83 0c 38 3d
       -0.007485246 0.087046534 0.07075667 0.044933807
000290 18 f4 ce 3c 3b e7 cd 3c 6e ea b6 3c 5c 4e ea bc
       0.025262877 0.025134673 0.022328582 -0.028601818
0002a0 a4 16 d2 3c 77 39 9c bc a0 b4 3e 3c 70 d1 8e 3d
       0.025645562 -0.01907037 0.011639744 0.06973541
0002b0 9b e1 b5 bc f0 bb 54 bb 8b 8a 8d 3d 0f 30 ae 3c
       -0.022202304 -0.0032460652 0.069111906 0.02126315
0002c0 aa 71 b5 3d c5 af 94 bc a8 cf 26 3d 62 b7 10 3d
       0.0885957 -0.01815022 0.04072538 0.035331137
0002d0 dc ba 07 bc 1f 6a f1 3c 94 51 96 3d 96 3d 84 3d
       -0.008284297 0.029469548 0.073397785 0.06457059
0002e0 ec aa 29 bc ab e3 71 3d 20 79 51 3c f4 ca d9 3d
       -0.010355692 0.05905501 0.012785226 0.10634413
0002f0 40 aa 65 3c a6 38 5e 3b 71 c0 20 3d 82 c7 98 bb
       0.014017642 0.0033908277 0.039246026 -0.004662455
000300 a6 be 43 bd 56 31 8b bc f2 05 87 3d bb 58 c3 3c
       -0.04778924 -0.016991299 0.06592931 0.02384602
000310 31 4b 0e bd 8c 1f 3d 3b f8 a4 b3 3d d8 a8 9e 3d
       -0.034739677 0.0028857915 0.087717 0.07747048
000320 f9 09 0f 3d 09 6d 5e 3d b4 08 86 3d e3 d4 36 3d
       0.03492162 0.054303203 0.06544629 0.04463662
000330 35 6b b9 bd 96 ef ad 3c aa 08 d9 3d f7 e6 c5 3c
       -0.09053651 0.021232408 0.10597356 0.024157984
000340 f1 43 02 3d 17 f8 c4 bc 44 61 59 bc f7 60 21 bd
       0.031803075 -0.02404408 -0.013267819 -0.039399114
000350 49 e6 00 3d 3a 7f d9 3b 47 93 05 bd 77 da e2 3c
       0.031469617 0.006637481 -0.032611158 0.027692063
000360 6c ff 2c bb 54 2c 67 3c 84 20 94 3d d2 5b 6b 3d
       -0.002639736 0.01410969 0.07232764 0.057460614
000370 72 d8 30 bd 21 56 b1 3d 83 12 ac 3d 89 71 31 3d
       -0.04317517 0.08659006 0.08401968 0.043321166
000380 1a 6d 8f 3c c1 de 6c 3c 82 bd 0f 3e d1 d7 93 3d
       0.017508078 0.014457406 0.14037135 0.07218898
000390 7c 57 5a bd 63 77 79 3d 85 e6 2f 3e d4 7c 92 3d
       -0.053306088 0.06090487 0.1717778 0.07152715
0003a0 eb e2 87 3d 77 04 05 bc 3e be 13 3d 28 9a aa 3d
       0.06635078 -0.00811874 0.0360701 0.08330184
0003b0 b4 6c 1f 3d f0 4b 50 3d 14 4e 2f 3e fa f6 e4 3d
       0.038922027 0.05085367 0.17119628 0.111799195
0003c0 04 fb 8c 3d 91 e6 23 3d 2b de 0e 3e 1b 07 e1 3d
       0.06883815 0.040014807 0.13951938 0.109876834
0003d0 bc a4 e8 3c c8 19 85 3d be e5 33 3d 18 61 1d bd
       0.028398864 0.06499058 0.04392027 -0.038422674
0003e0 70 e0 bb 3b 94 ab 66 bd 3e 46 01 be 11 58 3b bd
       0.005733542 -0.056315973 -0.12624452 -0.045738284
0003f0 2f a3 8f 3d 6a 02 e2 3c d4 f1 37 bd de 36 ac 3d
       0.07013547 0.027589042 -0.04490836 0.084089026

bias f4 [16]
000000 65 16 73 bd 52 88 e9 bc f2 ad 0e 3d 20 f4 31 3d
       -0.05934753 -0.028507385 0.034833856 0.043445706
000010 d4 7e bf 3d 57 27 77 3c 0f 0c 1b 3d 5f 75 8d bd
       0.093503624 0.015085063 0.037853297 -0.069071524
000020 27 e0 f0 bc 61 e2 ea bc 53 a0 d2 bb 83 5d e8 3c
       -0.02940376 -0.028672399 -0.0064278035 0.028364902
000030 96 d3 57 3d f5 32 80 bb 51 10 b9 3d b1 14 eb 3d
       0.05269202 -0.0039123246 0.09036315 0.11478556

weight f4 [120, 400]
000000 57 1d 0b 3e d8 fa a7 3d c3 96 1b 3e c5 f4 6a 3d
       0.13585411 0.082021415 0.1519423 0.057362337
000010 48 7c 3c 3d 65 bc 10 3d 2d 2a 29 3c 5c 2a cd 3c
       0.04601696 0.035335917 0.010324997 0.025044613
000020 8c 62 30 3c cc a9 87 3d 76 b4 e9 3d bf 80 89 3d
       0.010765683 0.06624183 0.11411373 0.067140095
000030 66 a1 8d 3d bf f9 7d bd b0 ef af bc 0d 42 22 3e
       0.0691555 -0.062005755 -0.021476597 0.15845509
000040 92 43 33 3e 21 86 0c 3d d4 d7 0a be ae 0c b9 3c
       0.17506245 0.034307603 -0.13558894 0.022589054
000050 87 27 e1 3d 2b e6 0b bd 4c 3f ed bd b7 63 6b bd
       0.10993867 -0.034155052 -0.115843385 -0.057468142
000060 3f a4 18 3e 64 49 a6 3c 78 d0 ee 3b 78 1f 5f bc
       0.14906405 0.020298667 0.007288035 -0.013618343
000070 e4 87 81 3c 38 45 39 3d ab 88 ab 3c bf d8 11 3d
       0.015811868 0.045232028 0.020939192 0.035607096
000080 1f fd 8a 3c 4d 5e ec ba fd 80 4c 3d a2 36 81 3d
       0.0169664 -0.0018033475 0.0499277 0.063092485
000090 4d 68 99 3c 90 3a 61 bd 75 2e 13 3d d7 96 85 3d
       0.018726492 -0.05498749 0.035932977 0.06522911
0000a0 86 c3 4b 3c 66 f1 2e 3d fe 14 85 bc 77 f8 20 3c
       0.012436753 0.042710684 -0.016245361 0.009824864
0000b0 4d 3d 8c 3d 5c f0 79 bd 74 4e 3f 3c ab 93 49 3d
       0.0684763 -0.06102024 0.0116764195 0.049213093
0000c0 67 57 1b 3c 05 7e 77 bc 91 19 57 3d 05 65 03 bc
       0.009481288 -0.015105729 0.052514616 -0.00801969
0000d0 4f 33 86 bb 3d db 8b 3d 9e b6 45 3d 97 22 b5 bc
       -0.004095472 0.06828926 0.04826986 -0.02211122
0000e0 d1 b1 0f 3d 21 79 14 bd 00 84 a4 3c 3f cb ee 3d
       0.03508169 -0.03624833 0.020082474 0.1165986
0000f0 2d b3 47 3a 6f 5f 2f 3d 34 bd af 3c 49 63 0f bd
       0.0007617947 0.042815622 0.021452524 -0.035006795
000100 da cd 11 3d 26 c9 40 3d eb 63 8b 3d 2c 5d dc 3c
       0.035596706 0.04706683 0.06806167 0.026899897
000110 36 ed dc bc 57 fa 92 bc 06 b6 b2 bc b6 60 a5 3b
       -0.02696858 -0.017941637 -0.021815311 0.005046929
000120 92 83 60 3d 32 37 0c bd e6 1c 1d 3d 1e bf b9 3b
       0.054812975 -0.034232326 0.038357638 0.005668535
000130 90 2b 7c bc 29 9e 80 bb 83 52 81 3c c3 48 81 3c
       -0.0153912455 -0.003925104 0.015786415 0.015781766
000140 52 52 27 bd b0 2d 79 3b fb 11 30 3c e3 b5 90 3c
       -0.04084999 0.0038021617 0.010746474 0.017664855
000150 33 58 be bc b5 9c cc bd 83 39 5f 3d cc 92 37 bb
       -0.023235416 -0.09990827 0.054498207 -0.0028011082
000160 8f 8a 91 3d 98 62 2e bb f1 8e d6 3c ab b9 03 3d
       0.07106506 -0.002660906 0.026191207 0.03215949
000170 dd ae 30 3d 1f 87 8b 3c b1 8b e8 3b 06 15 19 bd
       0.043135513 0.017032204 0.0070967306 -0.037373565
000180 ef 01 92 3c be 0a 45 3c c4 f5 aa 3c 50 c2 00 3d
       0.017823188 0.012026487 0.020869143 0.03143531
000190 02 f0 eb bd 37 de 6d bd c0 1c a9 3d 41 8c 2f 3d
       -0.11520387 -0.05807325 0.08257437 0.042858366
0001a0 da 68 09 3e 9e 11 57 bd 05 12 21 bd 49 c5 5b 3d
       0.13418904 -0.052507035 -0.039323825 0.053654943
0001b0 0e de 77 3d 7d 2d 04 3e dd d5 99 3c 8c 46 0f bc
       0.060514502 0.12907977 0.018778736 -0.008744847
0001c0 35 b8 69 3d 76 78 bd bc 4f 7b 14 3c 78 75 cc bc
       0.05706044 -0.02312873 0.009062602 -0.024958357
0001d0 06 40 a4 3d 6d 2d e4 bb 73 d3 5c bd 26 f5 5d bd
       0.08020024 -0.006963423 -0.05391259 -0.05418887
0001e0 86 7c 6d bd 5d 06 01 be 6d 38 10 3d cb 67 71 3d
       -0.057980083 -0.12600084 0.03521006 0.058936875
0001f0 35 c7 92 3d fd c1 62 3c ed 8c 49 bd bd 99 d1 bc
       0.07166902 0.013840196 -0.049206663 -0.025586003
000200 71 64 2e 3d f6 ed 86 3d 58 a5 de bd 46 b5 bd bd
       0.042576257 0.06588356 -0.108713806 -0.09263091
000210 2b 37 3d bc 46 1b 03 3e e9 83 a1 3d c5 99 5d bc
       -0.011548798 0.12803373 0.07886488 -0.013525431
000220 10 11 bb bc 7c 14 22 bd 0f b6 f0 3c 26 c2 38 bd
       -0.022835284 -0.039570317 0.029383687 -0.04510703
000230 d3 72 d7 bd d1 99 31 be 99 97 68 bd 13 62 94 bd
       -0.10519948 -0.17343833 -0.0567852 -0.07245269
000240 19 4c ea bd 69 e0 50 3c 93 23 2e bd 3d 49 3b 3d
       -0.11440296 0.012748816 -0.042514395 0.045724142
000250 f8 db b6 3c 35 03 56 3d 31 e0 b5 3c 70 1e 65 3d
       0.022321686 0.052249152 0.02220163 0.05593723
000260 04 75 02 be bd 25 42 bd 74 18 86 3c fe 4a 11 bd
       -0.1273995 -0.04739927 0.016369082 -0.03547191
000270 df 81 bf bb a0 2a 9f bd 31 fa 1b 3c 79 d6 23 3d
       -0.0058443393 -0.07771802 0.0095200995 0.03999946
000280 91 80 62 3b 32 5b 92 3d 7a 60 5d bd c2 88 dc bc
       0.0034561495 0.071463004 -0.054047085 -0.02692068
000290 db d7 d2 3d fb e1 f9 3b 46 92 c5 bd ae 77 df bd
       0.102950774 0.007625816 -0.0964704 -0.10911499
0002a0 f8 b1 99 bd cc 6f 1c bc a6 87 38 3c a3 ae e4 3a
       -0.07504648 -0.009548139 0.01126281 0.0017447065
0002b0 07 53 b6 bd d0 09 cd bc 1a 5f df 3c 1d ae 3f 3d
       -0.08902555 -0.025029093 0.027267028 0.046796907
0002c0 78 a3 a6 3d 10 b2 22 3e 27 6f 24 3e 44 c0 93 3d
       0.08136648 0.15888238 0.16058026 0.07214406
0002d0 a3 62 eb bd 69 59 7e bd ef 90 96 3d 5e af 69 bd
       -0.11493423 -0.062096987 0.07351863 -0.05705201
0002e0 6e 17 1c bd ec b8 8b bb af a3 13 3e 86 04 3d 3d
       -0.03810828 -0.0042639878 0.14417909 0.046146892
0002f0 16 5c 59 bd 31 36 05 be 14 7e 88 3d d3 c1 f9 3c
       -0.053066336 -0.13008954 0.066646725 0.03048793
000300 f8 da 7b 3d 58 f5 c6 bd 92 5f 5a bd 28 54 5a bd
       0.06148812 -0.09714764 -0.0533138 -0.053302914
000310 4e 7e f8 bb 01 a9 91 3b fd 4d 8b bb f2 1b 2d 3d
       -0.007583416 0.0044451957 -0.0042512403 0.04226298
000320 11 11 e0 bc 9b a9 d7 bc 03 17 01 be 81 8e 91 3c
       -0.027351888 -0.026325991 -0.12606435 0.017768146
000330 c3 67 e1 bd 1d da 5c 3c 08 72 70 bc f9 48 c5 bc
       -0.11006119 0.013479737 -0.014675625 -0.024082648
000340 64 59 cc bc 65 d9 62 3d a6 f0 2c bc cd 2b 1f 3c
       -0.024944969 0.055383105 -0.010555422 0.009715033
000350 a9 b1 4a 3d 1e 0c b7 3c 16 ec 8e 3c 5e 34 e3 bd
       0.049485836 0.022344645 0.017446559 -0.110939726
000360 95 70 2f 3c 16 5e 77 bd 18 7a e6 3c 6e 89 9d 3c
       0.010707994 -0.06039246 0.02813439 0.01923057
000370 bf 0b a1 bd f8 5e 5f 3d 80 31 5e bd fc 7f 93 bd
       -0.078635685 0.05453393 -0.054246426 -0.072021455
000380 30 f3 51 bd d5 ae 62 bc 0e db c8 bc e0 d4 dd bc
       -0.051257312 -0.0138356285 -0.024518516 -0.027079046
000390 9c a3 87 3d 04 2d d7 3d 69 b6 fc bc 0f b9 91 bd
       0.06623003 0.10506633 -0.030848699 -0.07115375
0003a0 d7 7f 5d 3d 8b 6c 0a 3c 6f 28 63 3c 65 dc 29 3d
       0.054076996 0.00844873 0.013864621 0.04146995
0003b0 21 ea 14 3c ec 7a e6 bb ae 89 dc 3c cc 79 c1 bc
       0.009089024 -0.0070336964 0.02692112 -0.023617648
0003c0 91 66 30 bd a2 10 1a bd 44 f9 02 3d ad 85 44 bd
       -0.043066565 -0.03761352 0.031976 -0.047979046
0003d0 0d f6 15 3d 1d a0 a7 bd c3 19 27 3d 60 ca 89 3d
       0.036611605 -0.08184836 0.040796053 0.06728053
0003e0 4e 40 7b 3d 39 87 46 bd d7 c1 65 3d bb 33 80 3d
       0.061340623 -0.048468802 0.056093063 0.06259867
0003f0 77 af 77 3d f2 f9 0c bc 62 4b 15 3e 6a a3 2e 3c
       0.06047007 -0.0086045135 0.14579538 0.010659078

bias f4 [120]
000000 18 54 0e 3d ad 2c aa 3d 7a c5 29 3c c5 61 14 3d
       0.034748167 0.083093025 0.0103620235 0.036226053
000010 e7 20 79 3d eb 73 dc bb 49 be 35 3c 88 6f 64 3c
       0.060822394 -0.0067276857 0.011092731 0.013942607
000020 07 e5 4b bb ef 70 b3 bc 34 52 1c 3d 90 0c 92 bc
       -0.0031111853 -0.021904437 0.038164333 -0.017828256
000030 17 c7 6d 3c 5c b1 b8 bd 64 01 20 bd fc 5b 42 bb
       0.014512799 -0.090182036 -0.039063826 -0.0029656878
000040 79 d6 92 3d dd 04 1c bc 17 70 15 bd 84 68 26 bd
       0.07169814 -0.009522644 -0.03648385 -0.040627018
000050 ea 9a a0 3b 2c 0b c9 3d 54 4c eb 3c cf 03 3b 3b
       0.0049012797 0.09816584 0.02872292 0.0028536206
000060 88 8a 9f 3d 0c a3 40 bd dd dc 03 bd c8 7f 89 3d
       0.077900946 -0.047030494 -0.032193054 0.067138255
000070 53 a4 48 3d f8 53 62 3d b0 72 aa 3c 78 1f 15 3d
       0.048984837 0.05525586 0.02080664 0.036406964
000080 79 b1 ea bc 3b 05 27 3d f7 89 2c bc f6 04 9a bd
       -0.028649079 0.040776473 -0.01053094 -0.075204775
000090 2f ff 61 3d 73 97 c7 bc 2c 26 43 3d 75 87 a3 bb
       0.055175003 -0.024364209 0.047643825 -0.004990513
0000a0 1b ce 59 bd 06 95 3f 3d 4d 27 74 bd 1e cb d3 bc
       -0.053175073 0.04677298 -0.059607793 -0.02585369
0000b0 1b 34 87 bd 0d d0 d5 3c 22 95 23 3d f7 f7 53 3b
       -0.06601735 0.026100183 0.039937146 0.0032343843
0000c0 90 f9 84 3d 08 45 6d bd 31 05 e2 ba eb 3f 92 bc
       0.06492913 -0.05792716 -0.0017243979 -0.017852744
0000d0 20 e6 34 3d 53 1e 5e bd f0 59 97 3c c6 2b ad 3c
       0.044164777 -0.05422814 0.018475503 0.021139037
0000e0 bf 3d 49 3d fd 70 14 3c 54 68 f0 bc 69 5e f1 3b
       0.04913115 0.009060142 -0.029346623 0.007365991
0000f0 05 9f cb 3d 17 0d bb bb b0 af 84 bc 65 3d b7 bc
       0.0994244 -0.0057083475 -0.016197056 -0.022368142
000100 4b b8 b9 3c 15 55 a7 3a 82 43 f1 ba 0d cc 2b 3c
       0.022670886 0.0012766445 -0.001840696 0.010485661
000110 dd d6 25 bb 79 f5 58 bd 86 8a 89 3d 6a ec bd bb
       -0.002530507 -0.052968476 0.067158744 -0.005796005
000120 be 4a 8d 3d 80 e3 5a 3d d3 3a 92 3d e2 d0 93 bc
       0.068990216 0.053439617 0.07140126 -0.018043939
000130 91 9c 07 bd 9e 60 0d bd 55 aa 44 bd 8d 91 19 bd
       -0.033108298 -0.03451597 -0.048014004 -0.037492324
000140 0e 78 5b bc 18 3b 08 bd 59 8d f6 3c 62 97 bd 3c
       -0.0133953225 -0.03325948 0.030096697 0.023143474
000150 74 9d d1 3d 8a 92 91 bc 09 fd 05 3d d1 4c 8b 3d
       0.1023511 -0.01777007 0.032712016 0.06801761
000160 c7 2b f6 3c a4 70 b4 3c 32 38 10 3d 82 8e 70 bd
       0.030050172 0.022026367 0.035209842 -0.058729656
000170 20 24 2b 3d 10 ef 68 bc e4 b6 23 bd 89 47 f2 bc
       0.0417825 -0.014217153 -0.03996934 -0.029575126
000180 97 1b f9 3c c4 f1 8a ba db f4 35 3d d3 2f 50 bd
       0.030408664 -0.0010600616 0.044422965 -0.05082686
000190 c9 40 93 bc f4 a9 93 3d 95 eb 46 3d e6 66 1e bd
       -0.017975228 0.0721015 0.048564512 -0.03867235
0001a0 08 ef 20 3d 82 1e 4c bc fb 5e 52 3d 22 7e c3 3c
       0.039290458 -0.0124584455 0.05136011 0.023863856
0001b0 ed 68 87 bd 37 2b 53 bc 80 ff 8b 3d 24 26 47 bc
       -0.0661181 -0.012888721 0.06835842 -0.0121550895
0001c0 60 75 e4 3c 57 17 ad 3c 4f 73 34 bc 1a 44 74 bc
       0.027888 0.021129293 -0.01101382 -0.014908815
0001d0 0c bc 67 3d 0a be f0 3c 4e b8 81 3d 3c 21 16 3d
       0.05657582 0.029387493 0.063339815 0.03665279

weight f4 [84, 120]
000000 2a 71 16 3b 58 41 3e bd b8 30 e9 3c b6 48 94 bc
       0.0022955635 -0.046449035 0.028465614 -0.018101078
000010 e1 2d 9d bd 14 ac 31 3c 41 f0 82 bd b2 54 0a bd
       -0.07674766 0.010844249 -0.06393481 -0.033772178
000020 cc 52 8c bd 0c c0 8d 3d b7 ee 15 3d 87 a3 56 bd
       -0.0685173 0.06921396 0.03660461 -0.052402046
000030 51 d5 69 3d ac 42 94 bd e0 43 07 3c 18 54 92 bd
       0.0570882 -0.07239279 0.008255929 -0.07144946
000040 49 e9 49 3d 75 09 53 bd dd b5 1a bd 18 6a bf 3c
       0.049294744 -0.05152269 -0.037771095 0.02336602
000050 aa ba bb bd 43 5a 46 3d 60 d4 c4 3b 6c 8d 75 bd
       -0.09166463 0.048425924 0.0060067624 -0.059949324
000060 76 54 66 bc ab 50 62 bd 32 79 96 3c a4 a3 09 3d
       -0.014058223 -0.055252712 0.018368337 0.033603325
000070 7d 10 99 bd ae 55 71 3d 53 1f 17 bd 0c a9 aa 3d
       -0.07473848 0.0589196 -0.036895107 0.083330244
000080 83 49 34 bc 36 dd a3 3c 61 97 28 bd 38 47 cc ba
       -0.011003855 0.020002943 -0.04115999 -0.001558519
000090 4c 8f 2a bc f7 22 03 bd 7b b9 5a bd 80 dd 3a 3b
       -0.010410141 -0.032015767 -0.053399544 0.0028513372
0000a0 1f 2b ad bd 5f 22 5e bd de 8d 16 bd 80 84 1a 3b
       -0.0845549 -0.054231998 -0.03675639 0.0023577511
0000b0 85 27 6b bd 98 38 33 bd 3c a7 2a 3c 05 b8 9b 3a
       -0.057410736 -0.043755144 0.010415848 0.0011880404
0000c0 35 2e 60 37 c4 1d 45 bd 45 a8 8e 3d 24 47 bb bc
       1.3362199e-05 -0.04812409 0.069656886 -0.02286107
0000d0 97 f5 95 bd e5 a0 41 3d 09 85 0f 3c 39 e2 7d bb
       -0.07322233 0.04727258 0.008759745 -0.0038739576
0000e0 55 05 b1 bd be 28 7a bd 07 56 62 3d 87 a4 e6 bc
       -0.08643595 -0.06107401 0.055257823 -0.028154625
0000f0 ee ac 87 bd 6d e6 4e 3d 35 61 9a bd 20 56 55 3d
       -0.066247806 0.05051272 -0.07538072 0.05208409
000100 77 3a 04 bd 90 7f 1d 3d 96 2c 33 3c 44 73 b6 3d
       -0.03228232 0.03845173 0.010935923 0.08908704
000110 6a d8 0e 3d 50 2a ca bb 1b c8 a7 3d 9a 03 96 bd
       0.034874357 -0.006169595 0.08192464 -0.07324906
000120 a5 8d 1a 3c 99 37 04 3d d2 a1 93 bd af 09 4c bd
       0.009433185 0.032279585 -0.07208599 -0.049813922
000130 01 30 29 bd 7f 5a 3f bd c7 da 3b bc c4 5f 66 bd
       -0.041305546 -0.046717163 -0.011465735 -0.056243673
000140 2e 75 b0 3d a5 c4 a6 bb 27 3e b3 3d 16 2c 8c 3c
       0.086161 -0.00508936 0.08752089 0.017110866
000150 5a a4 34 bc 60 c3 02 3c ab c5 57 bd 65 ae 7c bd
       -0.011025513 0.007981151 -0.052678745 -0.061689753
000160 12 88 17 3d 91 1a 1c bc e3 3e 9b 3b c8 bf 27 bc
       0.036995 -0.009527818 0.0047377213 -0.010238595
000170 a0 6c 8c 3d 53 28 bc bd 9b 2e 66 bd cb 4a 4c bd
       0.06856656 -0.09187379 -0.05619679 -0.049876016
000180 e4 fc 06 bd f9 cd 8e 3d 07 d1 6b 3d 34 01 8d bd
       -0.03295602 0.0697288 0.05757239 -0.06884995
000190 5c 40 d7 bc fa e0 94 3d 4d d0 98 bd d8 1d 1b 3c
       -0.026275806 0.072694734 -0.07461605 0.0094675645
0001a0 eb a8 08 3d 3f 32 2c 3d ae df 83 3d 7b 9f 6c 3d
       0.033364218 0.042040106 0.06439148 0.05776928
0001b0 ae 1e ae 3c ac 3c b0 bd 12 be 3a bd 8c 9a 81 bc
       0.021254864 -0.08605322 -0.04559142 -0.015820764
0001c0 de 5b 8a bd 0a b1 3d bd 61 1e 8d 3c 5f 74 11 bd
       -0.067558035 -0.046311416 0.0172264 -0.03551137
0001d0 b6 73 5d 3c 07 b4 fc 3c 6c 0f 36 3d d4 9e 99 bd
       0.013516357 0.030847562 0.0444483 -0.07500997
0001e0 2c 45 9b 3d 30 3b 5e 3c 88 4e 08 3c 55 dc 02 bd
       0.07581553 0.013563916 0.008319505 -0.031948406
0001f0 4b 21 0a bd 1b 73 b4 b9 87 6c 60 bc 6f f3 ae bd
       -0.033723157 -0.00034418036 -0.01369775 -0.08542525
000200 ef 0a 0d 3c 26 b2 77 bd 3a 2a a9 bd c0 ac b0 3c
       0.008608564 -0.06047263 -0.08260007 0.021566749
000210 32 95 a8 bc 60 a1 ee bc 10 d0 4c bc ff be 32 bd
       -0.020578954 -0.029129684 -0.012500778 -0.04363918
000220 2c 50 28 3d 2c e4 00 bc 63 89 3b bd d8 8d b4 3d
       0.041092083 -0.0078669 -0.04578532 0.08816117
000230 db ce 81 3d b4 6c 85 3d 46 48 ba bd b4 0d 90 3c
       0.06338283 0.06514874 -0.09095816 0.01758466
000240 0f a4 30 3b 6c 00 9f 3d 1f 19 ac 3c 5b 6a 6c 3c
       0.0026953255 0.07763752 0.021008072 0.014429654
000250 a2 9b 5c 3d 55 48 0e 3d bc c5 b2 bd 7f a6 bf bd
       0.05385936 0.03473695 -0.08729121 -0.093579285
000260 84 ba 5a bd c3 70 b4 bc 8e 54 86 3c ea d4 5c 3d
       -0.05340053 -0.022026425 0.01639774 0.05391399
000270 18 da b8 bd bd 2d 98 bc ab ac 9f bd f0 c5 a1 3d
       -0.09025973 -0.018576497 -0.07796606 0.07899082
000280 c1 23 4d 3d 4c 65 3d 3d d7 b3 67 bc b9 66 6d bd
       0.050082926 0.046239182 -0.014141998 -0.057959292
000290 5c 9c 49 bd ae 8f e4 bb e8 b9 ab bb 60 81 ba bb
       -0.04922138 -0.0069751358 -0.0052406676 -0.0056916922
0002a0 a6 ed 95 3d 92 af 54 bd f3 0e 81 3d 40 f1 25 3d
       0.073207185 -0.05192525 0.063016795 0.040513277
0002b0 cb 1d 9c bd 0c 65 3c bd 42 da 71 bd 63 7b e9 bb
       -0.0762287 -0.045994803 -0.059046037 -0.0071253045
0002c0 c7 2a 2f 3d 3f d0 42 3d df 76 bf bc 82 95 9a 3d
       0.042765405 0.04756188 -0.023372112 0.075480476
0002d0 15 8d 17 3d e7 b3 45 3c c3 d8 a2 bd 69 df 9a bd
       0.03699978 0.012066818 -0.079515 -0.07562143
0002e0 bb eb 4f 3d ec e6 47 3d 00 c7 6e bd cb 2c 95 bd
       0.05076192 0.04880421 -0.05829525 -0.07283934
0002f0 e2 5e cf ba 3f 0a ab bd e3 95 60 3d b1 48 c7 3c
       -0.0015821124 -0.08351564 0.054830443 0.024326654
000300 6b 48 98 3c 7b 88 8f bd eb 38 93 bc 4d 5d 49 bd
       0.01858922 -0.070084535 -0.017971477 -0.049161244
000310 78 f5 37 3d 08 59 b2 3d 5d a1 c6 ba b0 8e c0 bc
       0.04491183 0.087083876 -0.0015154291 -0.023505539
000320 ca 2f 7d 3d f2 33 e7 bc 91 25 4d bd 8e 64 a7 bd
       0.061813153 -0.028223012 -0.050084654 -0.08173476
000330 0e cc 9f 3b c8 ca 93 3d ec a2 0d 3d 54 e3 f5 3c
       0.00487662 0.07216412 0.034579203 0.030015625
000340 75 46 6b 3d 94 da a0 bd a7 1b aa 3d cd d3 5a bd
       0.05744024 -0.078541905 0.083060555 -0.053424645
000350 da d5 ba bd a4 db 2d 3d ec 3a 90 3c ea 01 d9 bc
       -0.0912282 0.042445794 0.017606221 -0.02649017
000360 f6 bc bb bd 4e 97 ae bb 1b 4e 80 bd a8 f2 7c bd
       -0.09166901 -0.0053280955 -0.062648974 -0.061754853
000370 8e c3 a7 3d 86 27 1c 3d ed c5 ac bd ad 28 21 bd
       0.08191596 0.03812363 -0.08436189 -0.039345432
000380 45 42 4a bd b3 e3 a9 bd fd f0 9b bd ed a8 ac 3d
       -0.049379606 -0.08295383 -0.07614324 0.084306575
000390 02 84 67 ba e0 ef 99 3d 5c 2c 19 3c 92 9a b4 3d
       -0.00088316214 0.07516456 0.009348955 0.088185444
0003a0 ee e8 7c bd 0c 0d 9d 3c 60 b4 4a bd 4e 2c 05 3d
       -0.061745577 0.01917126 -0.049488425 0.032512955
0003b0 73 ed 85 3d bf fc 75 3d 5e 49 84 bd 67 11 1c bc
       0.065394305 0.06005549 -0.06459306 -0.009525633
0003c0 5e 81 a8 bc c9 a2 15 3d 88 27 f5 bc 90 12 6c 3d
       -0.0205695 0.036532197 -0.029926077 0.05763489
0003d0 aa 39 26 be b3 9c 7f 3b 2d 99 61 bd dd c2 7c 3c
       -0.16232935 0.0039003312 -0.05507772 0.015427318
0003e0 3d 73 d3 bd a9 3d ff 3d 74 26 c1 bb 3a 42 9f 3d
       -0.10324714 0.124629326 -0.0058944765 0.077763036
0003f0 f0 b7 59 bd f5 34 c1 bc 64 b4 a9 3d 85 b2 bf 3d
       -0.053153932 -0.023584822 0.0828636 0.09360222

bias f4 [84]
000000 51 f7 49 bc f5 14 bb bd 2a fc ab 3c c0 68 02 3e
       -0.012327031 -0.091348566 0.020994265 0.12735271
000010 ad c6 e4 3c 13 ce 97 3d 90 13 bb 3d 1b b1 a0 3d
       0.027926767 0.074123524 0.091345906 0.0784628
000020 8f 43 40 bd 0c cc 50 3d cb c9 54 bd 8e 47 bc 3d
       -0.04693943 0.050975844 -0.051950257 0.091933355
000030 f1 85 b2 3d 23 c2 6c bd 56 ed 10 bd 1e 17 94 bd
       0.087169535 -0.05780233 -0.03538259 -0.07230972
000040 70 72 81 bc 18 da af bd 8c 20 80 bd c8 af d1 3c
       -0.015801638 -0.0858652 -0.06256208 0.025596514
000050 99 66 11 3d 2a 7a 7d 3d 01 d5 5f bd 31 72 9f bd
       0.035498235 0.061884083 -0.054646496 -0.07785452
000060 e5 ec ac 3d 63 d1 de bb 7a 7e 92 3a 57 f1 60 3d
       0.084436215 -0.006799863 0.0011176609 0.05491766
000070 ab 60 ec 3b 08 10 90 3d 8b a6 18 3a db b1 43 bc
       0.007213672 0.07034308 0.00058231567 -0.0119442595
000080 d5 78 ac 3c bd 10 df bc 0a a1 18 bc 15 12 53 bc
       0.021053711 -0.027229661 -0.009315738 -0.012882729
000090 0a ef 97 bd e4 d2 b6 bd 11 1a 62 3c 82 44 c2 bd
       -0.0741864 -0.08926943 0.01380016 -0.09485723
0000a0 a6 e0 e2 3c 34 56 cb bd 94 17 1e 3d b7 6f e8 3c
       0.027695011 -0.09928551 0.038596705 0.028373582
0000b0 a6 92 17 bd 6e c8 08 3c de b2 80 3d 09 cb b9 bd
       -0.03700509 0.008348567 0.06284116 -0.09071929
0000c0 64 a2 97 bd 68 9c 8f 3d 16 36 12 3d 8d e8 3f 3d
       -0.074040204 0.07012254 0.03569611 0.046852637
0000d0 de 3c 06 3d 7c 38 d5 bd 23 b8 a4 bd 1c f2 4b bc
       0.03277289 -0.10411164 -0.08042934 -0.01244786
0000e0 ce 8a 66 bc 16 99 2e 3c 78 57 e5 3c d5 67 55 bd
       -0.01407118 0.010656616 0.02799581 -0.052100975
0000f0 04 ef f5 b9 79 d9 e8 3d 30 3d bd 3d 6c a5 14 3b
       -0.00046908122 0.113696046 0.09240186 0.0022681607
000100 b3 4a a9 3d e6 fa a5 bd 2d 4c 9b 3d 3b 6b 18 3d
       0.08266201 -0.08104496 0.07582889 0.037211638
000110 c2 b5 a9 3d 1c b5 ad 3d f2 77 a8 bd c6 04 ec 3d
       0.08286621 0.084818095 -0.08226003 0.11524348
000120 af d4 9c 3d 2e 41 b8 3d dc 36 9b 3d 3b a9 7e bd
       0.07657754 0.08996807 0.07578823 -0.06217311
000130 d8 f2 b0 bc 59 3d e6 bc 67 73 94 3d 37 a4 44 3d
       -0.021600172 -0.028105425 0.07248574 0.04800817
000140 0b 94 18 bd 5f 78 3d 3c ed b3 5f bc 4e 67 75 3c
       -0.03725056 0.011564343 -0.0136537375 0.014978243

weight f4 [10, 84]
000000 2d a7 c6 bd b2 a9 b6 bd 1c e9 98 3d c7 4f 7e bd
       -0.09699855 -0.089190856 0.07466337 -0.0620878
000010 27 00 d0 3d 58 53 c6 bd d6 cc 7f 3c 44 a6 e4 3c
       0.10156279 -0.09683865 0.015612802 0.027911313
000020 80 ad a9 bd f4 dd e9 3d cc 7c 63 bd 8c 15 25 bd
       -0.082850456 0.11419287 -0.055538937 -0.04030375
000030 65 c9 be 3d 66 bc c1 bd d7 88 01 3e 97 ab ef 3d
       0.09315757 -0.09459762 0.12649857 0.1170265
000040 15 15 0b be 14 ec 31 bd d5 bd a8 bd f3 b3 d6 3d
       -0.13582261 -0.043438032 -0.082393326 0.10483541
000050 71 7a e9 bd 2d 19 13 be 09 22 7a bd 31 76 9c 3d
       -0.11400307 -0.14365073 -0.061067615 0.07639731
000060 03 0a 8a 3d 4e 93 b8 bd 72 48 53 bd 9d 32 cd bd
       0.06740191 -0.09012471 -0.05158276 -0.10019419
000070 0a 55 fe 3d 8f 4c 19 be c3 57 09 3c a0 38 09 3e
       0.12418564 -0.14970611 0.00838274 0.13400507
000080 e4 2d 12 be 76 d2 ce bc d4 bd 98 bd 7d 25 db 3c
       -0.14275318 -0.02524684 -0.07458082 0.026751274
000090 23 27 4a bd d3 4b 26 be 57 31 67 bb 61 9a 01 bd
       -0.04935373 -0.16239862 -0.0035277212 -0.031641368
0000a0 17 62 c9 bd df 75 0e 3e 09 17 b4 bd 43 c7 a9 bd
       -0.09833162 0.13912152 -0.08793456 -0.08289959
0000b0 41 ab 2a 3d 40 b0 01 be cf 2b b2 3d d1 fc 1c 3e
       0.041667227 -0.1266489 0.08699762 0.15330817
0000c0 c4 05 3f 3e 2f 97 c3 3d 28 41 14 be 48 a7 95 3d
       0.18654543 0.0955032 -0.1447798 0.07307297
0000d0 64 10 26 be bd 27 cf bc 62 a1 47 bd a5 10 af bd
       -0.1621719 -0.025287503 -0.04873789 -0.085480966
0000e0 d2 5e fe 3d 74 4c 05 3e e9 57 4b 3d 72 1b 2c 3d
       0.12420429 0.13017446 0.049644385 0.04201836
0000f0 7c d7 1f 3e 6e 25 a8 3d 84 b8 90 bc 00 9f c0 3d
       0.15609545 0.08210264 -0.017666109 0.09405327
000100 3b 10 79 bd 53 69 d8 bc 5f 18 64 3d a4 fc 49 bd
       -0.060806494 -0.02641741 0.055687305 -0.049313203
000110 55 c3 4a 3e 62 55 74 bd 65 39 6e bd 2d 4c 1c 3d
       0.19801076 -0.05965174 -0.058160204 0.038158584
000120 c8 78 d4 3d 0e 26 0f be 3e e0 11 be c6 76 5e 3d
       0.103746 -0.1397936 -0.14245698 0.05431249
000130 f9 63 59 3d 71 c9 75 3c 3d 47 1a be 66 96 0f be
       0.053073857 0.015001641 -0.15066238 -0.14022216
000140 f4 69 73 bd 0a a2 a9 3d a3 c8 18 be 52 d4 82 3d
       -0.059427217 0.082828596 -0.14920287 0.06388153
000150 ca fd d7 bd d5 76 fe 3c cb b9 76 bd bb 5c 20 be
       -0.10546453 0.031062523 -0.06023578 -0.15660374
000160 ed 80 94 3d 4f d2 63 3d 57 f2 b1 3d 27 87 13 3e
       0.07251153 0.055620488 0.08688801 0.14407025
000170 e9 a6 de 3d 1a e6 a5 3d c3 78 1a be 11 84 0e 3e
       0.10871679 0.08100529 -0.1508513 0.13917567
000180 b0 7d 2e 3e cd 87 ae bd 71 ce b7 3e 9e 28 1e be
       0.17040133 -0.08521996 0.3589969 -0.15445182
000190 41 f9 e5 bd d2 28 32 3c 10 5e 09 3e 0f d5 01 bc
       -0.11229182 0.01087399 0.13414788 -0.007924332
0001a0 bf ef ff bd f1 57 00 3d 5f dd ab 3d a5 98 e2 3c
       -0.124969 0.031333867 0.083918326 0.027660677
0001b0 fe 6d 09 3e 3c a5 50 bd 43 ff aa 3d e3 3a 81 bd
       0.13420865 -0.05093883 0.083494686 -0.0631006
0001c0 df 52 4b 3d 14 84 7d 3d 1a 18 05 be a9 21 8a 3d
       0.04963958 0.061893538 -0.12997475 0.067447014
0001d0 ba 22 ab 3d cd 44 22 be 28 54 25 3d 48 90 54 3d
       0.08356233 -0.15846558 0.04036346 0.05189541
0001e0 01 cd 9b 3d 4b 4d 04 3d 3b 11 82 3d a6 6a 39 bd
       0.07607461 0.032300275 0.06350943 -0.045267724
0001f0 ef e2 96 3d 4c d6 f4 bd f5 c3 40 3d d4 c5 a6 bd
       0.07367503 -0.119549364 0.04706188 -0.081432015
000200 f5 d2 01 bd fe 76 a5 3d 02 58 d7 bd cd e9 dc 3d
       -0.031695325 0.080793366 -0.10514833 0.107867815
000210 c4 ee bb 3d 94 47 ca 3d e4 23 d0 3d 62 de 22 be
       0.091764 0.09876934 0.101630956 -0.15905145
000220 6f e2 e3 3d 8e d1 5d 3b bb b4 d1 bd 7c cb 8d bb
       0.11127173 0.0033846828 -0.1023955 -0.0043272357
000230 cd c1 fb 39 88 8b 0c be 3f a7 d8 bd 87 ec b0 3d
       0.00048018844 -0.13725102 -0.10578775 0.08638864
000240 d4 6e c6 bd 90 cc f2 3d 13 18 f2 bd bc af e8 bd
       -0.096891075 0.118554235 -0.11820998 -0.11361644
000250 08 7a f9 3d b7 11 a3 3d 04 29 35 3e 67 7f b6 3d
       0.12181479 0.07962363 0.17691427 0.08911019
000260 8d 22 4e 3e 9b b3 8d 3d 80 8e 6b ba 65 33 2a 3d
       0.20130368 0.06919023 -0.0008985773 0.04155292
000270 b7 79 4b 3d 7d 7c 36 3d ae 87 9c bd e3 b3 54 3d
       0.049676623 0.044552315 -0.07643066 0.051929366
000280 db 16 ad bd 57 1e ff bd 54 4c bf 3c 77 44 02 3e
       -0.08451625 -0.12456959 0.023351826 0.1272143
000290 7e 88 86 bc 3d 12 9e 3d df c6 d7 bd 68 30 27 be
       -0.016422506 0.077183224 -0.105359785 -0.1632706
0002a0 76 9f a6 bc 13 4a d0 bd 71 47 0d 3e 19 eb 17 be
       -0.020339709 -0.101703785 0.13796784 -0.14835776
0002b0 cd 84 47 3e 7a c2 c9 3d b1 a6 10 3e 42 88 e6 3d
       0.19484253 0.098515466 0.14126088 0.11256458
0002c0 0a 78 0c 3d 62 e6 4d 3c 4a a0 dd 3d 5b e7 f6 bc
       0.034294166 0.012567135 0.10821588 -0.030139616
0002d0 a6 61 ab bd a1 f5 7c 3d 38 c1 67 be 4a 56 f2 b9
       -0.08368234 0.061757687 -0.22632301 -0.00046222127
0002e0 62 f9 e0 3d 15 ea ab 3d 3a 02 1a be 6d 0b 7e bd
       0.10985066 0.08394257 -0.15039912 -0.062022615
0002f0 e9 94 01 be 08 4a 8e 3d ba 7f fc 3d 1f a0 cf 3d
       -0.12654461 0.06947714 0.123290494 0.101379625
000300 c7 90 14 3c f2 a5 8c 3d 47 0d 04 3e fd 7e 27 3e
       0.009067721 0.06867589 0.1289569 0.16357036
000310 aa 16 89 3d 55 bd d0 3d 38 b3 d0 bc d8 50 2d 3c
       0.06693776 0.10192362 -0.025476083 0.010578357
000320 4f 52 08 be 2a 16 bc bd d3 3d c9 bd 61 1b cc bd
       -0.13312648 -0.09183915 -0.09826245 -0.099661596
000330 68 cd ac bc 37 39 ed bd da 2e 0a be db 8a 6f 3d
       -0.02109404 -0.115831785 -0.13494435 0.058482032
000340 59 92 85 bd 27 2c 0c 3d bc e1 16 3e f3 cd c3 3d
       -0.06522054 0.034221794 0.14734548 0.09560766
000350 43 b6 d3 bd fe ba bd bb e1 d7 2a bd 27 b3 fd 3c
       -0.10337498 -0.0057901135 -0.041709784 0.030969216
000360 b1 5d e5 3d f9 e0 0f 3d 46 5d bd 3d 7a 58 12 3e
       0.11199511 0.03512666 0.09246306 0.14291564
000370 4d e8 99 3d 08 6f 4e 3d e2 db c8 bd 9e aa db 3c
       0.07515011 0.050398856 -0.09807564 0.026814755
000380 38 ae 1e 3c 78 72 6e 3d f5 05 8a bd 3e ef 12 bd
       0.009685092 0.058214635 -0.067394175 -0.03587269
000390 7d 76 07 3d 97 fb 4a bc a6 e8 e9 bd 3a 2a 1d be
       0.033071984 -0.012389085 -0.11421327 -0.1534814
0003a0 d1 45 af bd 60 a7 94 bd 6b 75 fa bd b3 2d f1 bd
       -0.08558238 -0.07258487 -0.12229427 -0.117762946
0003b0 16 09 36 3e 2a e2 61 bd 42 c5 3a 3d 43 b2 00 3e
       0.17776904 -0.055147327 0.045598276 0.12568001
0003c0 a6 1e d0 3d 7a 2d fa bc 45 1b 06 3e 18 6b 4c 3d
       0.10162096 -0.030539263 0.1309634 0.04990682
0003d0 38 19 ff 3b bc 2f 95 bd a9 14 7e 3d f6 08 a9 bd
       0.0077849887 -0.07284495 0.06203142 -0.08253662
0003e0 4e c2 d8 bd 17 34 c7 bc 7e 8f c9 3d 31 e4 eb bd
       -0.10583936 -0.02431683 0.09841822 -0.115181334
0003f0 b7 c2 99 3d 13 5b a8 bb 86 1a 92 bd 2b 42 d2 bd
       0.07507842 -0.00513781 -0.07133965 -0.10266527

bias f4 [10]
000000 42 11 5e bc 03 9b 60 bc 7d 00 11 bc 21 a1 f8 3b
       -0.013553919 -0.013708833 -0.008850214 0.0075875674
000010 40 de 1c bd 89 69 82 3c 17 c2 76 3d 45 e0 37 3b
       -0.03829789 0.015919464 0.060243692 0.002805726
000020 24 86 86 bd 93 e2 97 3d
       -0.06568554 0.074162625
