ModelBackup/MNIST_lenet_model_250_0.990300.pkl (torch_old, 268661 bytes, 10 tensors)

weight f4 [6, 1, 5, 5]
00000000: bcb1 523e 31ee 9cbd 7edd b9bd 1597 3bbc
00000010: f928 a8be 2409 923e aa19 e63d 6dfb 4a3e
00000020: 8961 0d3e 237a a3bc 6875 4c3e fd87 5a3e
00000030: afe1 a73e 9cbf 4a3e 8053 093e 786e 1d3d
00000040: 309f 2d3e 1cbc 4d3e f66d c43e 89e1 823e
00000050: 8324 7bbe aadc 77be e6be 12be 0626 d1bd
00000060: 051d aa3b be1b 543d 4e66 7c3e 802f 453e
00000070: 2933 9bbe a8ad b1bd f621 113e ba1e b93e
00000080: 4001 5d3e 08bd a8be 5d09 ecbe 831a 123d
00000090: 6a1c bf3e 695e e83d 7204 723d f4a0 92be
000000a0: 2f5c 9e3e 83cc c03d 33fa b43e b13d 393e
000000b0: 0d25 52bd 0fcc 113e b2fe 613c a49f 533e
000000c0: 60f0 223e 78fa 0d3e 286c b9be a68d 5bbe
000000d0: 591b 633d e168 0c3d 68eb a63e f9b7 343e
000000e0: 98d7 d03d 874f 1d3c 303e a33e 5178 833e
000000f0: 3310 913c 377e a63e f2be a23e 8822 b93e
00000100: d6ef da3b c75d 313e 8863 5c3e 18cf 253e
00000110: 9820 a4bd 4a7a 38be 5d5d 873e bc55 5e3d
00000120: 7734 cf3d 07b2 83bd 444f 1bbb 7458 0f3e
00000130: 3371 813e beec 723e 7731 b8bd 23cc 3d3e
00000140: cb61 afbe 9de0 33be 4b62 f73d 8185 353e
00000150: 5860 af3e 050a a3be f921 2fbe 277b 9d3e
00000160: 2702 773e e2d4 953e 0919 ebbc eea0 86bd
00000170: d655 883e 3694 853e 4c0d bebd 0128 37bd
00000180: 1bad 0b3e cac6 f13d 1107 13be 8abf 88be
00000190: 525f 6f3e 9302 963d 6697 7b3e 3fd2 443e
000001a0: 45ba b9bd ac9b afbd 84b7 a23e a79a 2e3e
000001b0: e354 673e 9d05 b23c 84f5 fd3d 02e9 953e
000001c0: 41e1 ab3e 31bb d4bc 533f 9e3c 29e2 523e
000001d0: d600 993e 5487 9a3e e7d2 61bc 21c1 e9bd
000001e0: 3a95 84bd 1632 1c3e 67c8 b63e 09ec 8dbb
000001f0: 6349 1b3e 881c 2dbe d037 85be f566 04bd
00000200: 520c 503e 2508 833e 4c03 42bd ce0c 1a3e
00000210: 9c5b 9a3e e9b6 8b3e f686 483e 85f6 883e
00000220: 5b23 723e 5a41 173e 21b8 34bd 2f22 0cbe
00000230: 6ce6 5fbd 3ebd 373b 11b3 dabd 0786 203e
00000240: 1494 023e 7966 28bd 97ee a43d 19a2 ba3d
00000250: 300c 613e ebd2 5d3e
0.20575613 -0.07662619 -0.090754494 -0.011449595 -0.3284376 0.285226 0.11235364 0.19822474
0.13806738 -0.0199557 0.19966662 0.21340938 0.3278937 0.19799656 0.13410759 0.03843543
0.16955256 0.2009129 0.38365144 0.25562695 -0.24525647 -0.2420527 -0.14330634 -0.102123305
0.0051914477 0.05178427 0.24648401 0.19256401 -0.3031247 -0.086757004 0.14173111 0.36156255
0.21582508 -0.3295672 -0.46100894 0.035669815 0.37326366 0.11346132 0.05908627 -0.28638422
0.30929706 0.094140075 0.35347137 0.1808994 -0.051304866 0.14237998 0.013793634 0.20666367
0.15912008 0.13865077 -0.3621533 -0.21440753 0.055446003 0.034279708 0.32601476 0.17648305
0.10197371 0.00960148 0.31883383 0.25677732 0.01770792 0.3251817 0.31786305 0.36159158
0.0066814227 0.1732093 0.21522343 0.16192281 -0.08014029 -0.180154 0.26438418 0.05428098
0.10117429 -0.064304404 -0.002369837 0.13998586 0.25281677 0.23723122 -0.0899381 0.18534903
-0.34254298 -0.17566152 0.12079295 0.17726709 0.34253192 -0.31843582 -0.17102803 0.3075802
0.24121915 0.2926398 -0.028698461 -0.06573664 0.26627988 0.26089638 -0.0927988 -0.044715885
0.13640253 0.11805494 -0.14358164 -0.26708633 0.23376206 0.0732471 0.24569473 0.19220828
-0.09068731 -0.08574614 0.31780636 0.17051183 0.22590975 0.021731192 0.12400344 0.29279333
0.33570293 -0.025968166 0.019317305 0.20594086 0.2988345 0.30181372 -0.013783193 -0.114137895
-0.06473775 0.15253481 0.3569977 -0.004331116 0.15164714 -0.16905415 -0.26019144 -0.03232475
0.203172 0.2559215 -0.047366425 0.15043947 0.30148017 0.27287987 0.19582734 0.2675058
0.236463 0.14771023 -0.04412091 -0.13684915 -0.054663107 0.002803638 -0.106786855 0.15676127
0.127518 -0.04111335 0.0805332 0.09112949 0.21977305 0.2166249

bias f4 [6]
00000000: 062a 1cb9 6a5b 3c3e b102 8e3b 74b4 3b3d
00000010: 59ed dabd 816e f237
-0.00014892974 0.18394247 0.004333817 0.04582639 -0.10689802 2.8900105e-05

weight f4 [16, 6, 5, 5]
00000000: 6f5a 8abd 41ae 6bbd 21c8 153d d0af 91bd
00000010: b2e7 0cbc 89c4 2abe c1b1 0abd d1bd 49bd
00000020: 53fc 04be d4c4 1cbb e9d5 31be 4021 6bbd
00000030: 44a4 87bd 030c 15bd e51d 08bd c58f 09be
00000040: 8ab7 08bb 02e9 053d 4b6d 413e 28c2 f33d
00000050: 92ae 39bd dd2b 48bc d413 2ebc f341 003e
00000060: 6345 ca3b 90fd fbbd 53b2 40be 77f9 5dbd
00000070: a628 16bd 9bb0 f33d d171 86be b176 86be
00000080: ceff e73c fec0 133d c23b d63c 5ea0 76be
00000090: cc3f 25be 2a7b 023e 275f 353e 4fee eebd
000000a0: c895 18be 945d 8d3d 6edc 303e d6a1 09bd
000000b0: cc07 41ba 53e7 06be 65cd d03d 5eb9 c53c
000000c0: bd4a de3c 9899 3d3d b46c 883d 087e c4bc
000000d0: af79 123d ad74 1d3e 9f2a 703d f5a8 a5bd
000000e0: 7c65 ddbc 74b5 583e 4f33 3c3e 10bb e9bc
000000f0: fbc5 b13d 3e03 8d3d beae 693d fe98 33bd
00000100: 04c6 35be d978 063e 49fe 7bbc 1e66 a6bd
00000110: 9267 ebbd 7f5c 73bd 3259 19bd 913f c83c
00000120: a2ab 90bd be90 54bc 3837 dcbc 8d3f d2bd
00000130: 13c7 8abd 31c2 b03d e563 c73d 6b2e 50bd
00000140: aebc 8bbe f5e2 563e e7b9 553e f72b 14be
00000150: 7ceb 64be a899 2c3b 4fb0 223e a424 ef3c
00000160: a69b 94be d0e0 08bd f327 16bd 5cdb 8e3c
00000170: 92ae 95bd bd28 4fbd 026f 673d 9e73 54bd
00000180: 046f 113c f08c 8dbc 46c8 ee3c 86ab d7bc
00000190: 5b0c 693d fe68 3a3d a746 e13c 3541 833d
000001a0: 57ba 063e 3e24 e53b 53fb 0ebd 9978 583e
000001b0: dc5e ee3d 941a c9bd 61b7 49bd d43b 7b3d
000001c0: 203d 513e f96c 1abc ccca c2bd 2065 bf3c
000001d0: 5c76 ee3d e025 163e 94db 48bd 2b3b 34bd
000001e0: 4e41 95bd 92ba 113d 5b13 8d3b 4fd8 09bc
000001f0: d9a1 1c3c 6380 d13d 10e7 553e 7ede 513d
00000200: d48e ffbc 244a 72bd 5e14 7fbd 5ea0 dc3d
00000210: 0a64 8a3d 972a e83d bde0 73bd a67c 2cbd
00000220: 91eb 1f3e f960 0a3e 2d16 cbbd 0b1e f8bd
00000230: c105 ef3a d02b 483d 4f97 a0bd 0a77 11be
00000240: d69c 2d3c baef fcbc 6723 2d3d 22b6 ccbd
00000250: bb44 5dbd 417c 99bb 5a89 f4bd 9d34 9e3d
00000260: 77ed 9b3d 597c 233e 4a2a c43c a7fc 82bd
00000270: 96e0 69bd 4c76 4e3c a32b f13d 9936 13bd
00000280: 8df4 123c e28c b53d 8a85 5e3d 1bed eb3b
00000290: 5520 073b ff84 4b3d 7c76 273d beeb 0ebd
000002a0: 4933 dfbb 0ebc 22bd e811 ba3c f5a3 cd3d
000002b0: d49f c1bb c21a 40bc ad68 313d a664 a23b
000002c0: f698 be3d 8f18 09bd 517d 233d 1647 f23c
000002d0: 4dac c0bc 1729 023d c4f8 903d 67e6 803d
000002e0: 6c34 30bc dcb8 9a3d 6a4c a63c a68f c43d
000002f0: 6215 f83b 5aec 833b fcd2 4e3d 8450 a73b
00000300: 7d58 47bd 6ad4 97bc ec13 4f3d 2d9b a93c
00000310: 22d9 4dbd c938 bd3b 6473 cf3d 27ad 693d
00000320: 3085 09bc f615 0b3d fbad 623d 1c36 283d
00000330: b48b 9ebd 8b63 053d 3c71 d13d be74 cc3c
00000340: 6f31 c63c 03b8 c3bc 2470 26bc 3fa3 7abd
00000350: 986c 803c a95f 2f3b 379e 43bd 38b9 973c
00000360: 3176 c9bc 884f 6e3c 55f9 b13d 2cf8 6c3d
00000370: ec4b 2ebd 0a64 763d 3761 ca3d 2fa9 383d
00000380: 2c52 263c 2e02 883c 28cc 183e 10de 853d
00000390: 559d 75bd b8dd c93d f478 383e e29e 943d
000003a0: 357d 8f3d 6862 a83b e517 073d c4c9 9d3d
000003b0: b085 833c 4516 f23c d00a 533e 9193 fe3d
000003c0: 11a8 a33d 79d1 943c eac0 193e 17f8 003e
000003d0: f894 8d3c b425 973d 60b8 653d 6c66 14bd
000003e0: ecbd 6dbc 7c4a c0bd 4e86 28be c277 50bd
000003f0: 69d9 4f3d 580e d93c 89ac 34bd 94a5 9d3d
-0.0675553 -0.05753923 0.03656781 -0.07113612 -0.008600162 -0.16676535 -0.033860926 -0.04925329
-0.12986879 -0.002392103 -0.17366756 -0.057404757 -0.06623128 -0.03638841 -0.033231635 -0.1343375
-0.002086135 0.032692917 0.18889348 0.11902267 -0.0453325 -0.012217489 -0.010624845 0.12525158
0.0061728223 -0.123042226 -0.18818025 -0.054192986 -0.03665986 0.11898919 -0.2625871 -0.2626243
0.02832022 0.036072724 0.026151542 -0.24084613 -0.16137618 0.12742296 0.17712079 -0.116665475
-0.14900887 0.06902614 0.17271587 -0.033601604 -0.00073635275 -0.1317418 0.10195426 0.024136242
0.027135247 0.046289057 0.066613585 -0.023985878 0.035760578 0.1537654 0.058634397 -0.080888666
-0.02702593 0.21162969 0.18378948 -0.028531581 0.0868034 0.06885384 0.057051413 -0.043847077
-0.17751318 0.13132037 -0.0153804505 -0.08124946 -0.11494364 -0.059414383 -0.03743858 0.024444373
-0.07063986 -0.012973962 -0.0268818 -0.102660276 -0.06776252 0.08630789 0.0973585 -0.050825518
-0.2729239 0.20985015 0.20871697 -0.14469896 -0.22355455 0.0026336703 0.15887569 0.029192276
-0.29025 -0.033417523 -0.036659192 0.017438583 -0.07308687 -0.05057596 0.05650235 -0.051868074
0.008876566 -0.017279118 0.029148232 -0.026326906 0.05689655 0.045510285 0.02749951 0.06408922
0.1315702 0.006992846 -0.03490765 0.21139754 0.11639187 -0.098195225 -0.04924715 0.061336353
0.20433474 -0.009425395 -0.09511337 0.02336365 0.11643669 0.14662886 -0.04903753 -0.04400174
-0.072878465 0.035578318 0.004305286 -0.008413388 0.009560072 0.10229566 0.20888925 0.051237576
-0.031196035 -0.059152737 -0.062275283 0.10772775 0.06757362 0.11336248 -0.0595405 -0.04211106
0.15617205 0.13513555 -0.09916339 -0.12115105 0.0018235968 0.048869908 -0.0784136 -0.14205566
0.010596475 -0.03087603 0.04227009 -0.099956766 -0.054020625 -0.0046840017 -0.1194026 0.07724879
0.07613652 0.15965404 0.023945946 -0.06395846 -0.057098947 0.012601446 0.11775901 -0.03594074
0.008969438 0.08864762 0.05432657 0.007199896 0.0020618637 0.04968738 0.04088448 -0.03489279
-0.0068115336 -0.039730124 0.022713616 0.10041038 -0.0059089456 -0.01172513 0.043312717 0.004955846
0.09306519 -0.033470687 0.039914433 0.029574912 -0.02351966 0.031777468 0.07078698 0.06293946
-0.010754686 0.075547904 0.020300109 0.09597711 0.0075709084 0.004025978 0.05049418 0.0051060338
-0.048668373 -0.018533904 0.05055611 0.020703876 -0.050255902 0.0057745916 0.10129431 0.057049897
-0.008393571 0.03395649 0.055341702 0.041067228 -0.0774149 0.032565635 0.10226676 0.02495801
0.024193494 -0.023891455 -0.010158572 -0.06119084 0.015676782 0.0026759899 -0.047758307 0.018520936
-0.02459249 0.014545329 0.086901344 0.057853863 -0.042552873 0.060154 0.098818235 0.04508322
0.010151427 0.016602602 0.1492163 0.06536496 -0.059964497 0.098567426 0.1801489 0.07256867
0.07006303 0.005138684 0.032981772 0.07704499 0.016054958 0.029551635 0.20609593 0.1243049
0.079910405 0.01816629 0.15014997 0.12594639 0.017282948 0.07380238 0.056084037 -0.03623049
-0.014510613 -0.09389207 -0.16457483 -0.05089546 0.050744448 0.026496097 -0.044109855 0.07697597

bias f4 [16]
00000000: a953 94bd 651b 2cbd 13c9 d53c 74c3 063d
00000010: 7c02 ce3d e550 8f3c 2387 133d 5d5b 93bd
00000020: 39dc dcbc 4ee5 e0bc 24a6 5dbc 544b f83c
00000030: 8e89 8e3d 5372 4f3a a6e2 b63d 0a72 033e
-0.072425194 -0.042018313 0.026096856 0.032901242 0.100590676 0.017494628 0.03601755 -0.071951605
-0.02696048 -0.027453091 -0.013528381 0.030309357 0.0695983 0.0007913459 0.089299485 0.12836471

weight f4 [120, 400]
00000000: fd99 4e3e 298e 943d a270 363e c405 2d3d
00000010: 8c15 ad3d 2919 dd3c 669e f03b 32ed 0a3d
00000020: 50c1 9e3b 702d 973c efe1 f33d 9d94 b63d
00000030: 8a61 933d 39ec 31bd 1937 8cbd d9f7 fa3d
00000040: c754 d73d 983f 993c 9219 debd 3dd8 863d
00000050: 5593 d73d 8d8d f2bc 1a60 dfbd 0b72 a1bd
00000060: 48f0 1e3e d946 7a3c 3c92 a03c 9a96 8cba
00000070: c28b bd3c b7b9 fd3c 9f6b 613c e903 0e3d
00000080: 51a4 9e3c 082e 4b3c 0bce 3c3d e649 673d
00000090: 2e8b 9e3c da94 5cbd 70c5 513d ccf1 7c3d
000000a0: dee1 423c 8976 353d 5041 a0bc fe5c bb3c
000000b0: 23af b43d 5ee6 5abd 253a e33b 1e0c 373d
000000c0: cc4a aa3c 062e b1bc 38e1 053d 506c f339
000000d0: aeb5 0e3c 4580 c53d 4f3f ff3c 5adc 1cbd
000000e0: efec db3c 6450 fcbc 17e3 d83c f718 ae3d
000000f0: 0c64 053b 7c9f 473d 6831 f63c 8f3c 7ebc
00000100: 8bef 3b3c 8fa2 2e3d c551 aa3d b907 133d
00000110: 2c9b bcbc a57f 35bd ec23 37bc cfff 043c
00000120: df49 773d 98b0 97ba 32b5 103d 3026 913b
00000130: db0c a0bc 7de2 bbb8 e575 513c f2de 403c
00000140: 0801 24bd 3b5e 113b 939a 2abc de9f d73a
00000150: 2580 f9bc f925 fbbd 86fe 3d3d 2a33 8c3b
00000160: c8ca c23d 9f6d 81ba dffe 4a3b c080 313d
00000170: 8ebf 4c3d 95b7 ca3c d611 8d3c cdc4 663c
00000180: 6028 83bc ebf3 2a3c 4b31 e73c 5dae cc3c
00000190: b956 42bd 00e8 bcbd 05f6 ac3d 2a06 4f3d
000001a0: bdd1 2b3e 9048 51bd 3dca 41bd b83d 693d
000001b0: 63cb 8e3d e717 0d3e 6a82 c6bc d836 8d3c
000001c0: 6f51 663d 295f 7abc bfe4 efb9 9365 17bd
000001d0: b96b e53d 2303 303a 8025 67bd 825e 82bd
000001e0: 5eaa d6bd c014 febd f34a 703d 4fb7 633d
000001f0: edcb 6b3d c31e c4ba 015d f6bc 587e 8cbc
00000200: 859e 863d a74a b33d 488a 1ebe a95d d8bd
00000210: 3fe1 afbd 3a4e e33d a7e9 f13d 0596 24bd
00000220: 791c c3bc 573d 56bd a774 acbc 1adf a0bd
00000230: 4cbb 05be 21fe 26be 537a b0bc 9813 87bd
00000240: 5594 0bbe 7360 d03c ae15 c1bc 53fb 603d
00000250: 3338 e13c 8449 683d a29a 043d f8bd 023e
00000260: 5078 d3bd 3163 c5bd 88c9 ac3c b01d 36bd
00000270: 3ea1 85bc a137 98bd 5838 5c3c 5004 453c
00000280: 26f8 dd3b 1176 ba3d 1ad8 39bd 9d12 6dbc
00000290: 9eb3 613d 5b33 383c a043 eabd a804 e3bd
000002a0: 8fbf a1bd 20c3 93bc d04a 983c 2fb1 e9bb
000002b0: 4206 c1bd ce09 a73c 9b08 303d f6d1 4f3d
000002c0: 790d b23d 8201 023e c3f1 0d3e a183 1b3c
000002d0: 7527 a7bd 71ea 3fbd 5a97 203c d504 a9bd
000002e0: 2e32 4d3c 77e0 a93b ccd3 cc3d 1c37 3d3d
000002f0: b177 c3bc 97ab c6bd 7ebb 7f3d a735 4bbc
00000300: 2f78 903d f419 9bbd be39 9e3b ed69 53bd
00000310: 0266 72bd 91e8 d1bc a5cd 82bb 3929 4d3d
00000320: bd01 a7bc 2635 5bbd 7c64 7fbd 907c 0e3d
00000330: bfc5 1cbe e4a9 75bc 823b 80bd 6f04 09bd
00000340: ea41 25bd de0e a93d 6e03 eabc 0d7c 263d
00000350: f286 8d3d 303d b63c dbb3 d23c 0639 ddbd
00000360: 752b 863b e8cf 91bd b973 803d c345 dd3c
00000370: e8ce 66bd 664e 3c3d d97a d1bd 8963 ecbd
00000380: 6705 c3bd 0908 b9bc 7268 24bd 6a9e 04bd
00000390: eead c13d d307 bb3d fbb3 50bd 9cc3 89bd
000003a0: ebad 913d 9563 97bc a6ce 58bc 8fcf 723d
000003b0: 5d0e b93b 6de2 a8bc 36b0 6f3c 0cee 53bd
000003c0: 39d1 59bc 25c7 89bd 8d62 683c 5b50 aebd
000003d0: 6d27 d83b f307 85bd 9bc3 c13c f9c5 c43d
000003e0: 7065 a73d 0afa 89bd 3af0 6b3d f375 933d
000003f0: ff4b 9b3d bc69 c73b e313 ec3d 1996 7e3b
0.2017593 0.072536774 0.17816404 0.042241827 0.08451375 0.026989536 0.0073431013 0.033917613
0.004844822 0.018454283 0.11908328 0.089150645 0.071963385 -0.04343817 -0.068464465 0.122543044
0.10514217 0.018707082 -0.10844721 0.06584213 0.10526148 -0.029608512 -0.10907002 -0.0788308
0.15521348 0.01527568 0.01960098 -0.0010726035 0.02313793 0.030972345 0.013758569 0.034671698
0.019365462 0.012401111 0.046094935 0.05646696 0.019353475 -0.053852893 0.05121368 0.061754033
0.011894671 0.044302497 -0.019562393 0.02287149 0.08822467 -0.05344235 0.0069344216 0.04468929
0.020787619 -0.021628391 0.03268549 0.0004642927 0.008710308 0.09643606 0.031158118 -0.03829608
0.026846377 -0.030800052 0.026475472 0.085008554 0.0020353822 0.04873608 0.030052856 -0.015517368
0.011470686 0.042635497 0.083163776 0.035896037 -0.02302321 -0.044311184 -0.011177998 0.00811763
0.060373183 -0.0011573015 0.03532905 0.004429601 -0.01953738 -8.9590416e-05 0.012784456 0.011771904
-0.040040046 0.002218141 -0.01041283 0.0016450842 -0.030456612 -0.12263102 0.04638531 0.00427856
0.09511334 -0.0009874589 0.003097467 0.043335676 0.04998737 0.024745742 0.017220419 0.014085007
-0.016010463 0.010434131 0.028221747 0.024985487 -0.047445986 -0.09223938 0.08445362 0.050542988
0.16779228 -0.05109459 -0.04731201 0.056943625 0.06972387 0.1377865 -0.024232108 0.017238066
0.056230005 -0.015281477 -0.0004575606 -0.036962103 0.11202187 0.00067143346 -0.056432247 -0.06365682
-0.10481714 -0.124063015 0.058665227 0.05559474 0.057567526 -0.0014962781 -0.030073645 -0.01715009
0.06573204 0.08754473 -0.15482438 -0.10564739 -0.08587884 0.11098905 0.11812144 -0.040182132
-0.023817288 -0.052304592 -0.021051718 -0.07855053 -0.1305973 -0.1630788 -0.021542704 -0.06595534
-0.13630803 0.025436616 -0.023569908 0.05492718 0.027492618 0.056710735 0.03237403 0.1276778
-0.10325682 -0.0963806 0.021092191 -0.044461906 -0.016312238 -0.07432485 0.013441168 0.012024954
0.0067739664 0.09104551 -0.045372106 -0.01446977 0.055102937 0.011242713 -0.1143868 -0.110848725
-0.07897865 -0.018037379 0.01859036 -0.0071317176 -0.09425022 0.020390417 0.042976957 0.050737344
0.08693976 0.12695888 0.13861756 0.009491832 -0.08161823 -0.04685444 0.00980171 -0.08252875
0.012524171 0.005184229 0.100013345 0.046195135 -0.023860784 -0.09700697 0.062434666 -0.012402928
0.07054173 -0.075733095 0.0048286607 -0.05161469 -0.059179313 -0.025623592 -0.0039918 0.05008814
-0.020386571 -0.053517483 -0.06235169 0.03478676 -0.15309809 -0.014994118 -0.0626135 -0.033451494
-0.040346064 0.08254789 -0.028566089 0.040645648 0.069105044 0.022245973 0.025720527 -0.10801892
0.004094536 -0.07119733 0.06272072 0.027010804 -0.056349665 0.045973204 -0.102285095 -0.11542422
-0.09522515 -0.02258684 -0.04013867 -0.032377638 0.094570026 0.09132352 -0.050952893 -0.06726763
0.0711325 -0.018480102 -0.013232863 0.059279975 0.005647464 -0.02061578 0.014629414 -0.05174069
-0.0132945115 -0.06727437 0.014183653 -0.0851142 0.006596497 -0.06495657 0.023652842 0.09608073
0.081736445 -0.06737144 0.057602145 0.072002314 0.075828545 0.0060856026 0.115272306 0.003884679

bias f4 [120]
00000000: 2723 1c3d f55c bb3d 6024 2a3c ac7a f23c
00000010: b55f b03d 6e03 85bc d19e 113c 1ee4 873c
00000020: f9be 8dbb 38e9 b6bc 7611 3f3d 2d52 c9bc
00000030: d965 583c abff 9bbd 493a 24bd 5970 3bbc
00000040: 2cc2 963d 315e 1dbc 05df 0ebd 4038 26bd
00000050: 8a7c f53b b183 d73d 9cac eb3c ba73 323b
00000060: 53c0 993d 3b8c 0bbd 8bbc 0dbd 80e6 9e3d
00000070: 3a56 583d b171 4f3d 15a4 863c 178e 063d
00000080: 9572 f9bc 8399 153d 2ab3 b0bc 9c97 b8bd
00000090: 99dd 643d 2172 85bc a486 443d 5899 a1bb
000000a0: 6a42 84bd 4b67 393d 8800 8ebd f903 d3bc
000000b0: 4494 8bbd 7bff cd3c 9e81 173d 73fa 223c
000000c0: b438 743d 58b1 9cbd 724d 0bbc 1b32 92bc
000000d0: a04e 383d 290a 78bd cbe2 943c ef16 623c
000000e0: 06f3 1d3d 2385 533c 340d c8bc 8fb2 d93b
000000f0: 8a18 db3d deff e03a 66d7 8bbc 605f b7bc
00000100: d1cc 093c 4066 ac3a aae0 00bc e595 703c
00000110: 944f f73a a23c 59bd 11c9 713d d4f8 cdbc
00000120: 339c 883d 517e 4a3d 0989 983d a8be f6bb
00000130: c529 063d e010 0dbd 015f 5abd 7309 1abd
00000140: d395 92bc 5790 16bd a530 c03c 7f24 963c
00000150: dbf7 e73d 8a92 91bc 261c 083d e418 9c3d
00000160: 39fe 1a3d 20d1 8f3c 301f 003d 2cac 4fbd
00000170: b8c4 423d 4703 bcbb a2a9 fcbc 8c5d 33bd
00000180: 73b2 c93c 5aea 3ebb 6c7b 3e3d 8dff 5fbd
00000190: f58a 93bc a6d2 873d 1522 4a3d d3d5 1ebd
000001a0: 6650 173d 1a3f 53bc 8731 243d 1b49 ca3c
000001b0: fdd5 92bd 0c95 53bc 6a08 933d c7fa 45bc
000001c0: 7169 df3c fbaf f33c c937 38bc c419 75bc
000001d0: 8ac8 433d 5332 ea3c eb27 803d 7cd7 1b3d
0.03811946 0.091485895 0.010384649 0.02959951 0.08612005 -0.016236987 0.008887962 0.016588267
-0.004325744 -0.022328004 0.04664751 -0.024575317 0.013207876 -0.07617124 -0.040094648 -0.01144036
0.07361254 -0.0096049765 -0.034880657 -0.040580988 0.007491653 0.10523165 0.02876883 0.0027229623
0.07507386 -0.03406928 -0.034603637 0.07758808 0.052816607 0.050645534 0.016435662 0.03285035
-0.030450145 0.036523353 -0.021569807 -0.09013292 0.055875394 -0.016289772 0.047979966 -0.00493161
-0.0645798 0.045264523 -0.06933695 -0.02575873 -0.06815389 0.025146237 0.036988847 0.009947407
0.05962439 -0.07651013 -0.008502351 -0.017846158 0.044996858 -0.060556564 0.01817455 0.013799413
0.038561843 0.01291016 -0.024420358 0.0066436003 0.1069804 0.0017166098 -0.017070483 -0.022384346
0.008410648 0.0013153031 -0.007866064 0.014684175 0.0018868321 -0.05303634 0.059029642 -0.025143065
0.06670418 0.04943687 0.074480124 -0.007530052 0.03275468 -0.03443992 -0.05331326 -0.037606668
-0.017893707 -0.036758747 0.023460696 0.01832795 0.113265716 -0.01777007 0.03322997 0.07621935
0.037840102 0.017555773 0.031279743 -0.050701305 0.047550887 -0.0057376954 -0.030842606 -0.043790385
0.024621224 -0.0029131384 0.046504423 -0.05468707 -0.018010596 0.06631975 0.04934891 -0.038778137
0.03694191 -0.012893463 0.040086295 0.024693063 -0.07169721 -0.0129139535 0.07179339 -0.012083716
0.027271958 0.029747 -0.011243769 -0.014959756 0.04779867 0.02858845 0.06257614 0.0380473

weight f4 [84, 120]
00000000: 3108 c8ba 31e4 58bd b830 e93c 40a6 cbbc
00000010: 4650 a3bd e966 773b 9ce5 8bbd 8737 1cbd
00000020: ec8c 9abd 22cd 7e3d 788c 0c3d 2785 70bd
00000030: ef30 533d 8613 9dbd e043 073c 3855 a1bd
00000040: 1584 293d 0933 6fbd b310 38bd 186a bf3c
00000050: 1943 bdbd 33c2 293d 60d4 c43b 6c8d 75bd
00000060: 8b91 a6bc 4f39 77bd 5315 373c 55f4 df3c
00000070: 3dbe a7bd 6ffe 563d cc18 33bd 57ec a73d
00000080: 4707 95bc 3c58 5c3c d80a 42bd 8677 febb
00000090: 552f 28bc ce20 03bd 7782 73bd 80dd 3a3b
000000a0: b7b1 bbbd 0ac9 74bd 40a2 33bd 8084 1a3b
000000b0: d632 81bd ef32 50bd 97ac 253c 9a73 74bb
000000c0: 1e56 bfbb e2c4 44bd f3a1 853d 2447 bbbc
000000d0: 44ac 9dbd 7a31 243d 2c07 0b3b 184c 33bc
000000e0: ec13 b9bd 0c18 8cbd 34a6 4f3d 800f 14bd
000000f0: b3a6 96bd cfed 2f3d 7c36 a8bd 2056 553d
00000100: 77a6 21bd 907f 1d3d e245 723b ca8f a63d
00000110: ca2b e43c 502a cabb f565 9a3d d30b 96bd
00000120: 49d5 7b3b 2636 f23c b616 a0bd f5c9 5fbd
00000130: 8b90 3cbd a35f 3fbd a9ff 9abc e6c9 67bd
00000140: 4104 a43d fc82 4bbc b4ae a33d 6228 223c
00000150: cc60 99bc 60c3 023c 4b5a 78bd 8e82 8ebd
00000160: 79d1 173d a85e 83bc 7d45 8c3b 51ea 89bc
00000170: 0956 7a3d ca97 c7bd 1872 6bbd 6a53 69bd
00000180: 46d1 02bd 9c8c 7f3d a8de 6c3d e8ce 9bbd
00000190: 5c40 d7bc 4549 853d 37d5 a1bd d81d 1b3c
000001a0: 648d d23c 8ce3 173d b5c4 683d 110d 593d
000001b0: 09c9 5a3c ac3c b0bd 7565 54bd 8c9a 81bc
000001c0: a1f8 99bd d1ae 3ebd 1108 1f3c 5f74 11bd
000001d0: 5de1 df3b 0214 c13c e10d 1a3d 9e96 a9bd
000001e0: 1356 963d 5f56 663c 884e 083c b4a7 0bbd
000001f0: 6ac9 10bd 8128 1dbb 3ab6 7ebc 294b b3bd
00000200: ab6f cb3b 8601 88bd a519 adbd e582 633c
00000210: 8d73 b9bc 1d07 fbbc 10d0 4cbc f2bc 3abd
00000220: 3fcc 1e3d 6bce 1bbc c62b 44bd d88d b43d
00000230: d237 7c3d f08a 803d 4648 babd b40d 903c
00000240: 4a1d 6d3a 6103 9b3d 2589 9d3c 4845 4d3c
00000250: cc14 543d 1aaa 043d 3619 b6bd 13bd c3bd
00000260: 5f2e 62bd 2ab3 c4bc a475 643c 53d6 543d
00000270: 58ae b4bd b99e a5bc aa8b a4bd f0c5 a13d
00000280: 47f2 443d c9a8 343d debb 8fbc b966 6dbd
00000290: 6176 59bd f5ad 0bbc b012 f7bb 6bea e3bb
000002a0: ba68 903d 10e2 5bbd fe95 7a3d 40f1 253d
000002b0: f43c 9fbd 0dbd 42bd 00a4 78bd d59c 15bc
000002c0: d470 293d b74e 3a3d 1ae8 cebc 4092 953d
000002d0: 80f2 0f3d cef8 283c fc96 a7bd 69df 9abd
000002e0: 9061 443d ece6 473d 40a8 abbd 285b 99bd
000002f0: 5cc3 64bb 3f0a abbd 7bb9 573d a7f5 443d
00000300: 5783 433c 3457 91bd 0389 a3bc 3aec 4fbd
00000310: 5d8b a43c 0859 b23d b540 47bb b08e c0bc
00000320: e1cf 6f3d 21ce 0cbd 683e 55bd 01bd abbd
00000330: 7fa4 453b c8ca 933d 372d 373d 284d e63c
00000340: 72c8 623d a34c a7bd ea20 a63d 1722 b6bd
00000350: c8d6 bebd 01d6 073d a351 803c d595 eabc
00000360: 6024 bfbd dcf4 e9bb 5e62 94bd f486 82bd
00000370: 8ec3 a73d 8241 133d 0da5 aebd ad28 21bd
00000380: 4463 51bd fb83 acbd e10f a0bd e1f8 a73d
00000390: 4f8a 2ebb e0ef 993d 1a38 ee3b 929a b43d
000003a0: d187 82bd 1829 8d3c 97ef 52bd 4e2c 053d
000003b0: 6d7e 823d 52ab 7a3d 01d4 87bd bdce 3bbc
000003c0: 82b2 f1bc fe4f 603d 1afc f4bc 4159 8b3d
000003d0: 3692 7cbe 2ef2 0d3c d3bf 79bd 7d64 083c
000003e0: 92aa f3bd dfe1 043e fa52 a1bc b29a aa3d
000003f0: 445b 06be fe51 2abd 6ffb a63d 2e7f dd3d
-0.001526123 -0.052951995 0.028465614 -0.024859548 -0.07974295 0.0037750548 -0.06830904 -0.038138893
-0.0754641 0.06220735 0.03431365 -0.058720734 0.05156034 -0.076697394 0.008255929 -0.07877582
0.04138573 -0.05839828 -0.0449378 0.02336602 -0.092413135 0.04144497 0.0060067624 -0.059949324
-0.020333072 -0.060357388 0.011174518 0.027338186 -0.08190582 0.05248874 -0.04372482 0.08199375
-0.018191947 0.013448771 -0.047373623 -0.007765713 -0.010265191 -0.032013707 -0.059450593 0.0028513372
-0.09164756 -0.05976204 -0.043855906 0.0023577511 -0.06308524 -0.050829824 0.010111949 -0.003730035
-0.0058391234 -0.048039325 0.0652503 -0.02286107 -0.07698873 0.040086247 0.0021213992 -0.010943435
-0.09037003 -0.06840524 0.050695613 -0.036147594 -0.07356014 0.0429514 -0.08213517 0.05208409
-0.039465394 0.03845173 0.0036967923 0.08132894 0.027852912 -0.006169595 0.07538978 -0.07326474
0.0038426688 0.029566836 -0.07816832 -0.05463596 -0.046036284 -0.046722066 -0.018920736 -0.05658903
0.08008624 -0.012421366 0.07992306 0.009897323 -0.018722914 0.007981151 -0.060632985 -0.06958495
0.037065003 -0.016036347 0.0042807446 -0.016835364 0.061117206 -0.09745748 -0.057481855 -0.056964315
-0.03193786 0.062389955 0.05782953 -0.076078236 -0.026275806 0.06508116 -0.07901996 0.0094675645
0.025702186 0.03708224 0.05682822 0.052990977 0.013353595 -0.08605322 -0.05185457 -0.015820764
-0.07518125 -0.046553437 0.009706513 -0.03551137 0.0068322853 0.02356911 0.037610892 -0.08280681
0.07340636 0.014058678 0.008319505 -0.03409548 -0.035348333 -0.002398044 -0.015546376 -0.0875457
0.00620838 -0.066409156 -0.08452157 0.013886188 -0.022638107 -0.03064304 -0.012500778 -0.04559035
0.038769003 -0.009509663 -0.047893308 0.08816117 0.061576672 0.062765 -0.09095816 0.01758466
0.0009045197 0.07569004 0.019230435 0.012528725 0.051777646 0.032388784 -0.08891527 -0.095575474
-0.055220004 -0.024011213 0.013944063 0.051962208 -0.08822316 -0.020217286 -0.08034451 0.07899082
0.048082616 0.04410628 -0.017545637 -0.057959292 -0.05309141 -0.008525361 -0.0075400695 -0.006955435
0.07051225 -0.053682387 0.0611782 0.040513277 -0.07775298 -0.047543574 -0.060703278 -0.00913163
0.041367367 0.045485225 -0.025257159 0.073032856 0.035143375 0.010313226 -0.08183095 -0.07562143
0.047944605 0.04880421 -0.083817005 -0.0748809 -0.0034906482 -0.08351564 0.052667122 0.048085835
0.011933169 -0.07096711 -0.019962793 -0.050762393 0.020085985 0.087083876 -0.0030403559 -0.023505539
0.05854786 -0.034376267 -0.05206147 -0.08385659 0.0030157862 0.07216412 0.044720855 0.028112963
0.05536694 -0.08168914 0.081117466 -0.08893221 -0.0931831 0.033163074 0.015663927 -0.028635899
-0.0933311 -0.007139785 -0.072453246 -0.063733965 0.08191596 0.035951145 -0.08527575 -0.039345432
-0.051120058 -0.08423611 -0.07815529 0.08201767 -0.0026632731 0.07516456 0.0072698714 0.088185444
-0.06373561 0.01723151 -0.051498022 0.032512955 0.0637177 0.06119854 -0.066322334 -0.0114628645
-0.029504064 0.054763786 -0.029905368 0.06804133 -0.2466515 0.008663697 -0.060973953 0.0083247395
-0.11897768 0.12976788 -0.019692887 0.08330287 -0.13120753 -0.0415821 0.08153426 0.10815273

bias f4 [84]
00000000: adcb 52bc bd46 bebd a34c 603c bb28 083e
00000010: 2577 193d 7080 923d be52 bf3d 2a60 9f3d
00000020: 8f43 40bd de28 4c3d a37f 4bbd 9a95 c33d
00000030: c85d bd3d cd03 68bd af31 e1bc feff 8cbd
00000040: 2803 acbc 1ff8 cabd 2dc5 84bd 9536 003d
00000050: e06a da3c f315 6e3d b4ce 70bd df01 9fbd
00000060: 0462 b93d 97cb e7bb ac9f 3cbc e460 593d
00000070: 1e3a 7e3c d183 823d bcab e0ba 0ff2 80bc
00000080: afde a23c f8d9 b6bc 94b1 3ebc c5d8 02bc
00000090: 0aef 97bd 17dd aebd 5dfc c93c 49a0 c1bd
000000a0: 72ea bf3c 2f81 c5bd afc3 1a3d f0c6 c43c
000000b0: 3cf1 0abd 7305 0e3b 62d8 823d b098 aabd
000000c0: d999 84bd b08f 9e3d f9c7 f83c 60ec 503d
000000d0: c2eb e53c f5dd d4bd 79f6 a3bd 66cc 41bc
000000e0: 351e 5d3b 8422 af3c f9da cf3c d567 55bd
000000f0: ffef 583c 47e4 ee3d 9178 bf3d fbd9 a33b
00000100: 8b03 b13d 1214 adbd 51aa a33d ab55 233d
00000110: e0d3 a83d 8ebc aa3d 0d78 a8bd 407a ef3d
00000120: 793d a13d aa1d ba3d dd92 8f3d 6172 49bd
00000130: 6f5c aebc 9a36 fdbc 0524 833d 8060 343d
00000140: 421f 10bd 42a2 a03c 9d5f c0bc 6e16 743c
-0.012865943 -0.09290836 0.013690147 0.13296787 0.03746714 0.07153404 0.09341954 0.07782014
-0.04693943 0.04984366 -0.04968227 0.095500186 0.09246403 -0.05664425 -0.027489511 -0.06884764
-0.020997599 -0.099106066 -0.06482921 0.031302053 0.02666229 0.0581264 -0.058790877 -0.07764029
0.09051898 -0.0070738303 -0.011512678 0.053070918 0.015516786 0.06372798 -0.0017141025 -0.015740423
0.019881574 -0.022320732 -0.011639018 -0.007986252 -0.0741864 -0.08538263 0.024656469 -0.094544
0.023427222 -0.096437804 0.037784275 0.024020642 -0.033921465 0.0021670728 0.06388928 -0.08329904
-0.064746566 0.0774225 0.030368792 0.051006675 0.02806652 -0.103938974 -0.08005995 -0.011828518
0.0033739929 0.021378763 0.025372969 -0.052100975 0.013240813 0.11664634 0.09349168 0.0050003505
0.08643254 -0.08451094 0.0799147 0.03987662 0.08243537 0.08336745 -0.08226023 0.11693239
0.07873053 0.09087689 0.07010434 -0.049181346 -0.02128431 -0.030909825 0.064033546 0.044037342
-0.03518606 0.01960862 -0.023483092 0.014897926

weight f4 [10, 84]
00000000: ec01 c4bd 5aa0 babd 151e ac3d bae5 81bd
00000010: ea96 0d3e 0536 21be 5d23 fb3c f4bc 763c
00000020: 80ad a9bd 690a 033e b437 86bd 63e7 4fbd
00000030: c8eb fa3d d479 c3bd 2eda 1a3e b863 f73d
00000040: 2cd8 24be 0643 83bd 0b7d 3ebe 1ef2 eb3d
00000050: 2dac 01be 90c1 25be f519 84bd 9701 9b3d
00000060: 14c7 af3d 7070 b8bd 63bf a1bd dbdd 02be
00000070: b40a 0d3e f0a8 34be 3900 dfba 04da 183e
00000080: 96d4 22be 55a2 0abd cf44 ddbd d66d fc3c
00000090: 2327 4abd fc06 43be ee2a 7b3a 4558 fdbc
000000a0: 8a8c febd 82c6 0e3e 1bd9 c1bd 1959 d6bd
000000b0: 2fef f03c f5ac 14be 3877 b93d 5a1d 343e
000000c0: e2cf 8d3e 6b9e fb3d 1822 2ebe 4e79 9c3d
000000d0: eaa9 52be 7a07 cdbc ddd6 49bd 9ec4 adbd
000000e0: 4e60 143e fd45 183e 14d6 4b3d 721b 2c3d
000000f0: f75c 343e 7f1f d93d d3da e2bc bc7d cb3d
00000100: ee71 a3bd 0090 26bf 9e2b 4f3d de0f 72bd
00000110: ae1e 683e ffe1 70bd 6539 6ebd 5c59 223d
00000120: 1669 e83d 9952 19be cf08 24be 2c24 1b3d
00000130: f678 593d 3d12 af3c 3de5 37be bc8f 28be
00000140: a31a bebd 8334 bc3d 6888 26be 8be8 823d
00000150: bf8e e3bd 0c15 ec3c a9e0 9ebd e4d0 3dbe
00000160: b573 d63d 8972 193e e077 a63d 5ebe 233e
00000170: e9a6 de3d 473a a73d 7eb7 37be 131c 1c3e
00000180: 0302 533e 7727 aebd e094 e83e 1f67 37be
00000190: 79e5 01be 9ef2 88bc bd53 0c3e cb48 0c3a
000001a0: 8a27 11be f4c8 813c e9e0 a43d b994 dc3c
000001b0: 3ee6 193e 45db 50bd 224a 9e3d dea4 c5bd
000001c0: 40c6 1f3d 0cca 683d ff3a 16be b03a 8d3d
000001d0: edff bf3d 1fba 33be 2f96 633d f590 3c3d
000001e0: 01cd 9b3d d49e 163d 44c7 853d 97e9 3dbd
000001f0: 7f22 9a3d 741e 0abe d693 183d 8449 d7bd
00000200: f6ea e4bc d4e9 9f3d 2a44 f6bd 1164 ef3d
00000210: a044 c03d dca7 283e 5cc7 f03d afbc 2bbe
00000220: bbb7 dd3d d4e5 413b fbe7 d0bd abe1 83bb
00000230: c18d e23b 1d15 2ebe b349 edbd 87ec b03d
00000240: f69d dabd 0ae2 f03d a08d febd 8cb0 04be
00000250: 75c0 f53d 6a64 aabe 1119 513e a57d be3d
00000260: ae87 813e 4f53 6a3d 808e 6bba 5b7a 093d
00000270: 645b 873d 2666 193d 48d7 ccbd 5f24 103d
00000280: 1610 adbd e6bb 20be 6f24 333c ceb0 033e
00000290: 786b 08bd 90d0 ae3d 8cb5 1fbe 1c78 3bbe
000002a0: da80 07bc c195 d4bd ff8d 243e 6ea4 17be
000002b0: 7f67 7f3e d022 e43d 5026 203e ea79 e43d
000002c0: 0a78 0c3d 6bb6 b73c 9d1f f03d d41e 25bd
000002d0: 9b6c fabd 67b6 7d3d a992 b3be 7bca 45bb
000002e0: 8644 f33d 7034 d23d 4624 7cbe d0ff a2bd
000002f0: 07b4 03be 191f 963d e554 0e3e b529 ce3d
00000300: a5ab 43bb 2573 8c3d 3fc3 273e eaf5 3b3e
00000310: 4833 a43d b8d5 f03d 4366 c9bc 20b5 2c3c
00000320: 14ae 38be 1cd0 e2bd b73d 09be 7787 ebbd
00000330: 68cd acbc ea32 39be 0e0f 1fbe ef1d 6b3d
00000340: ee61 a9bd a9d9 8a3d 7e4f 273e 660a cf3d
00000350: 5e03 08be 5c36 4fbc 32ec 49bd 5ae4 083d
00000360: 81d0 223e 9629 6b3d d3b4 da3d 1136 283e
00000370: f7b5 d33d 7ff6 4c3d ebcd c8bd e3aa b73c
00000380: 8a69 98bc 2f08 7e3d e55a 93bd 3eef 12bd
00000390: d727 0f3d d22b 35bc 96e5 f6bd 545e 2bbe
000003a0: 1492 e7bd 6c5e 09be b758 13be 110c 0ebe
000003b0: 34ea 5b3e 4af8 96bd 3cc5 3a3d cea4 0b3e
000003c0: 0945 d03d ecdc f7bc 4a3f 0f3e 69d9 863d
000003d0: f738 3c3c 6149 a7bd 3974 863d f755 bfbd
000003e0: cd61 dcbd 0b52 20bd 54e6 f13d a80a 07be
000003f0: b395 883d 21c6 f5bb 72f9 9cbd 37a3 ddbd
-0.09570679 -0.09112616 0.08404175 -0.06342645 0.138271 -0.15743263 0.030656511 0.015059698
-0.082850456 0.1279694 -0.06553593 -0.050757777 0.12252003 -0.09544721 0.15122291 0.12079567
-0.16098088 -0.06409268 -0.18602388 0.115207896 -0.12663336 -0.1618712 -0.064502634 0.075686626
0.08582893 -0.09005821 -0.07897832 -0.12779944 0.13773614 -0.1764257 -0.0017013616 0.14926916
-0.15901408 -0.03384622 -0.1080414 0.030814093 -0.04935373 -0.19045633 0.0009581287 -0.03092588
-0.124291494 0.13942912 -0.09465238 -0.10466213 0.029410927 -0.14519103 0.09055942 0.17589322
0.27697664 0.12286075 -0.17005193 0.076403245 -0.2057263 -0.02502798 -0.049277175 -0.084847674
0.14489862 0.14870448 0.049764708 0.04201836 0.17613588 0.106017105 -0.027692234 0.09936091
-0.07980715 -0.65063477 0.050578706 -0.059097163 0.22667953 -0.058809277 -0.058160204 0.039636
0.113481686 -0.14972915 -0.16018985 0.037876293 0.053093873 0.021371001 -0.17958541 -0.1646108
-0.09282424 0.09189703 -0.16262972 0.0639201 -0.11111211 0.02881863 -0.07757694 -0.18536717
0.10471288 0.14985098 0.08128333 0.15990588 0.10871679 0.081654124 -0.1794109 0.15245084
0.20606236 -0.08503621 0.45426083 -0.17910431 -0.12685193 -0.016717251 0.13703819 0.0005351423
-0.14175239 0.015842892 0.08050711 0.026926385 0.15029237 -0.05099036 0.077289835 -0.096505865
0.039007425 0.056833312 -0.14670943 0.068959594 0.09374986 -0.17551468 0.055563148 0.04603668
0.07607461 0.036772564 0.065321475 -0.046365347 0.07526111 -0.1348818 0.037250362 -0.10512069
-0.02794407 0.07808271 -0.1202472 0.11689008 0.09388089 0.16470283 0.11756775 -0.16771196
0.108260594 0.002958645 -0.10200497 -0.0040247045 0.006913871 -0.17000242 -0.11586323 0.08638864
-0.1067466 0.117618635 -0.124293566 -0.12957972 0.11999599 -0.33279735 0.20419718 0.093013085
0.25298828 0.057208356 -0.0008985773 0.033563953 0.06609228 0.037450932 -0.10001999 0.035190936
-0.08450334 -0.15696678 0.010933979 0.12860414 -0.033305615 0.08535874 -0.15596598 -0.18307537
-0.008270467 -0.10380126 0.16069792 -0.14808819 0.24941824 0.111394525 0.15639615 0.11156066
0.034294166 0.02242585 0.1172478 -0.040312603 -0.12227746 0.06194153 -0.3507283 -0.0030180502
0.11878304 0.10263908 -0.24623212 -0.079589486 -0.12861644 0.0733015 0.13899572 0.10066549
-0.0029856947 0.068578996 0.16383074 0.18355528 0.080175936 0.117595136 -0.024584895 0.01054123
-0.18035156 -0.1107485 -0.13402449 -0.11500447 -0.02109404 -0.18085828 -0.15533087 0.057401594
-0.08270632 0.06779797 0.16338918 0.10109405 -0.13282534 -0.012647238 -0.04929752 0.033420898
0.1589985 0.057412706 0.10679021 0.16426875 0.103374414 0.050039764 -0.09804901 0.022420352
-0.018605012 0.062019523 -0.07195071 -0.03587269 0.034950104 -0.011057811 -0.12055509 -0.16735202
-0.11307159 -0.13414925 -0.14389311 -0.1387179 0.2147606 -0.07371576 0.045598254 0.13637087
0.101694174 -0.030256711 0.13988987 0.065844364 0.011488191 -0.08168293 0.065651365 -0.09342568
-0.107608415 -0.039140742 0.1181151 -0.13187659 0.06669178 -0.0075004254 -0.076647654 -0.108221464

bias f4 [10]
00000000: badd fabb a317 69bc 8d51 95bc fee0 093c
00000010: be40 39bd 7080 8a3c 1da2 6b3d eff3 e23b
00000020: 6372 86bd a143 9d3d
-0.0076558264 -0.014226827 -0.018227363 0.008415459 -0.04522776 0.016906947 0.05752765 0.006926052
-0.06564786 0.07678915
